training/results/iteration_1/best_model.pth (torch, 79198 bytes, 31 tensors)

model.func.radial_basis.basis.bessel_weights f4 [8]
2.005025 5.265259 9.049455 12.508885 16.03353 18.563696 22.29466 25.367716
00000000: 5452 0040 007d a840 91ca 1041 6524 4841
00000010: ab44 8041 7382 9441 775b b241 15f1 ca41

model.func.chemical_embedding.linear.weight f4 [24]
0.52764904 0.3679995 0.22483002 -0.09664686 0.031179992 1.3492101 -0.9201171 -0.51931477
-0.016286816 -0.30947053 0.91286767 -1.9941546 2.1355839 -0.24974532 1.3582487 -1.6360494
-0.78929466 -1.4767877 -0.88506347 0.84459746 0.18301862 0.081415765 2.182464 -0.1932014
00000000: 0214 073f 6e6a bc3e d739 663e caee c5bd
00000010: 2f6d ff3c ebb2 ac3f cb8c 6bbf d0f1 04bf
00000020: ee6b 85bc ec72 9ebe b2b1 693f 7540 ffbf
00000030: 68ad 0840 3dbd 7fbe 18db ad3f 116a d1bf
00000040: 370f 4abf 6107 bdbf 8593 62bf 8a37 583f
00000050: 3c69 3b3e 4fbd a63d 7dad 0b40 96d6 45be

model.func.chemical_embedding.linear.output_mask f4 [8]
1.0 1.0 1.0 1.0 1.0 1.0 1.0 1.0
00000000: 0000 803f 0000 803f 0000 803f 0000 803f
00000010: 0000 803f 0000 803f 0000 803f 0000 803f

model.func.layer0_convnet.equivariant_nonlin.mul.output_mask f4 [24]
1.0 1.0 1.0 1.0 1.0 1.0 1.0 1.0
1.0 1.0 1.0 1.0 1.0 1.0 1.0 1.0
1.0 1.0 1.0 1.0 1.0 1.0 1.0 1.0
00000000: 0000 803f 0000 803f 0000 803f 0000 803f
00000010: 0000 803f 0000 803f 0000 803f 0000 803f
00000020: 0000 803f 0000 803f 0000 803f 0000 803f
00000030: 0000 803f 0000 803f 0000 803f 0000 803f
00000040: 0000 803f 0000 803f 0000 803f 0000 803f
00000050: 0000 803f 0000 803f 0000 803f 0000 803f

model.func.layer0_convnet.conv.linear_1.weight f4 [64]
0.30932114 -0.14275044 -0.59151703 -2.0759358 -0.7633569 -0.40340462 0.05955738 0.8305043
-0.5604977 -0.84806454 -1.2751038 -1.6175698 -0.63594055 -1.057964 0.8954228 -0.25582084
-0.57602066 -2.3748364 -1.2428501 -0.30782083 1.5824615 -0.044401687 0.89963096 0.07840103
1.1678783 -9.157216e-05 1.1827075 -0.0031080395 -0.08567959 -2.1658392 -0.6701007 -0.59585345
-0.14806278 -0.22754917 -1.1626877 -0.99352026 0.4957941 0.07518116 0.2819635 2.0491855
-0.85536116 -0.55521697 0.025514528 -0.35351545 1.1769446 -0.18647912 2.4825344 -0.6089263
1.9942172 1.0368412 0.6145014 -1.5446471 1.1532108 1.5178449 -1.4121146 0.7653049
0.26177785 -1.0207685 -0.30895397 1.5020418 -1.1766605 1.1077645 -0.6128211 0.77227294
00000000: 575f 9e3e 2c2d 12be a96d 17bf 22dc 04c0
00000010: 5c6b 43bf 0d8b cebe 70f2 733d ee9b 543f
00000020: c77c 0fbf c21a 59bf 9a36 a3bf 870c cfbf
00000030: 00cd 22bf 5d6b 87bf 6e3a 653f f3fa 82be
00000040: 1776 13bf 52fd 17c0 b615 9fbf b19a 9dbe
00000050: 198e ca3f 8bde 35bd 374e 663f b890 a03d
00000060: 097d 953f 6e0a c0b8 f662 973f 40b0 4bbb
00000070: c878 afbd 1c9d 0ac0 b88b 2bbf da89 18bf
00000080: c59d 17be a602 69be f3d2 94bf 5857 7ebf
00000090: b9d8 fd3e 94f8 993d 855d 903e db25 0340
000000a0: f3f8 5abf b322 0ebf d803 d13c faff b4be
000000b0: 1fa6 963f 62f4 3ebe d8e1 1e40 98e2 1bbf
000000c0: 8242 ff3f 36b7 843f f74f 1d3f ffb6 c5bf
000000d0: 699c 933f be48 c23f 2cc0 b4bf 06eb 433f
000000e0: bf07 863e 8ba8 82bf 372f 9ebe e842 c03f
000000f0: d09c 96bf 3acb 8d3f d8e1 1cbf aeb3 453f

model.func.layer0_convnet.conv.linear_1.output_mask f4 [8]
1.0 1.0 1.0 1.0 1.0 1.0 1.0 1.0
00000000: 0000 803f 0000 803f 0000 803f 0000 803f
00000010: 0000 803f 0000 803f 0000 803f 0000 803f

model.func.layer0_convnet.conv.fc.layer0.weight f4 [8, 64]
-1.763323 -0.59326047 -2.36143 -3.6887777 2.76716 -1.8319672 -1.6841791 0.57379127
-0.8898653 0.18276098 1.4179016 -0.45360824 2.0139906 -0.8903882 -2.5513144 -0.9759542
0.009618586 0.8227241 -2.742542 -1.3955823 -3.8907351 0.49519312 -1.4883871 1.5618966
-1.217686 -1.533744 5.05161 -0.33473575 0.7133217 1.2798622 1.4467169 2.6363156
-2.7468636 1.1555295 1.5708069 -0.3241832 1.3828841 0.96247256 0.9060427 -1.5397837
-1.9249749 1.6337446 1.7438774 -0.24475537 0.04361654 0.85704756 2.2497196 3.3540509
-1.9654614 3.1001503 1.2783476 2.606745 -0.58204585 2.03421 -1.1569297 2.035892
-1.6347778 -1.6635369 1.5330262 -2.0431974 0.54821914 -0.79242134 -0.041388202 -1.3443406
2.196904 0.027215388 1.860977 0.4060496 -1.1225591 -0.8038427 0.8798837 0.055797655
-0.27825007 2.371077 -0.8507659 -0.21311942 -0.3667227 -0.53825873 0.13176328 1.1708294
-0.012760922 1.1766747 0.99938893 0.6429818 -0.20794924 -0.8039177 -0.22395244 -0.97139007
0.094939865 -0.37542394 0.06942463 2.144607 -3.2953255 0.062488306 -1.2677764 -0.6420749
-0.047975652 0.007166878 -0.6793454 -1.0847417 0.047420684 -0.07190662 -0.039542098 -1.6297082
1.3310019 -1.4449742 0.9907353 0.2069241 0.14844744 0.8094047 -1.6806893 0.61228275
1.3418361 0.08089052 -0.42628068 0.65939164 1.177234 -1.3311816 -0.5014258 -0.14497772
-0.8882397 0.5782503 1.992499 0.7502889 -1.1145759 0.6047448 -0.10179398 0.7544195
0.6076425 -1.2584397 0.91531086 -0.4706376 0.4503324 0.9610159 0.3987186 -0.15696521
-0.394531 0.54446524 0.7296507 -0.04374074 -1.5900931 0.22223641 0.47862795 1.7126166
-2.112667 1.3231062 2.497215 0.56480855 0.80901474 -0.15830927 0.36907992 1.5408794
-1.5353637 1.5810938 -1.0472786 -1.0010151 2.7344398 0.18479267 1.6142673 -0.6433006
-0.7235043 -1.9293416 -1.0792956 0.7540662 -1.2606405 0.07492596 0.073657736 1.9878991
-1.2857352 1.4618329 1.3124638 0.33108705 1.5054852 1.481648 1.3303353 0.16396217
1.5189711 0.089537196 3.3544247 -0.37565613 0.42364994 -1.7448218 -1.0364363 -0.722424
1.7047412 0.113474496 -2.3103337 0.6282738 -0.6548641 1.079968 0.8879365 -0.38420784
-0.095389076 -1.1575544 -1.9722245 1.0918211 -0.74856997 0.31462926 -2.5867841 -0.26614884
0.7034279 -1.3487456 0.18933976 0.32132733 1.560531 -1.70738 -0.339295 -1.6822685
0.21136144 -0.8862902 0.7340767 0.30310658 0.5102954 1.1835265 0.2064794 -1.0035917
0.75722545 2.5979083 -0.58242905 -1.089831 -0.9191449 -0.20071621 -1.2534612 -0.6935
0.3731928 0.4770673 0.82010335 -0.36858323 -1.0118668 0.6889687 -0.6313974 1.3979665
0.52354527 0.7826445 -0.54341686 -0.49041763 0.16637066 -2.2658439 0.7627304 0.2499686
0.26791394 -0.33899269 -1.5074245 0.87222385 0.33798566 0.9145131 -1.9214742 -1.3378114
-0.13747075 1.9640847 -0.016835306 -0.9420858 2.2581353 -1.2552068 -1.0296226 0.1972779
00000000: 91b4 e1bf ebdf 17bf ab21 17c0 ef14 6cc0
00000010: 2619 3140 e77d eabf 2e93 d7bf fce3 123f
00000020: 36ce 63bf b225 3b3e cd7d b53f 573f e8be
00000030: 39e5 0040 7bf0 63bf bc48 23c0 22d8 79bf
00000040: 4697 1d3c 0c9e 523f cf85 2fc0 71a2 b2bf
00000050: ce01 79c0 f489 fd3e 7883 bebf 3aec c73f
00000060: 23dd 9bbf b951 c4bf caa6 a140 7c62 abbe
00000070: 409c 363f 86d2 a33f 052e b93f 65b9 2840
00000080: 9dcc 2fc0 64e8 933f 3310 c93f 57fb a5be
00000090: 5902 b13f 9a64 763f 6af2 673f a217 c5bf
000000a0: 9465 f6bf 8b1e d13f 6037 df3f 27a1 7abe
000000b0: 42a7 323d 7867 5b3f 68fb 0f40 c5a8 5640
000000c0: 3d94 fbbf dd68 4640 e5a0 a33f e9d4 2640
000000d0: f500 15bf 7f30 0240 4616 94bf 0e4c 0240
000000e0: 6640 d1bf c7ee d4bf 343a c43f bfc3 02c0
000000f0: 1758 0c3f 20dc 4abf ad86 29bd 5a13 acbf
00000100: 139a 0c40 cef2 de3c 7f34 ee3f bce5 cf3e
00000110: 04b0 8fbf a3c8 4dbf 0f40 613f 158c 643d
00000120: cb76 8ebe babf 1740 cbcb 59bf fa3b 5abe
00000130: 14c3 bbbe 53cb 09bf f4ec 063e bddd 953f
00000140: 3013 51bc 479d 963f f4d7 7f3f 759a 243f
00000150: a5f0 54be 8dcd 4dbf ca53 65be 05ad 78bf
00000160: d56f c23d 9137 c0be 802e 8e3d 3e41 0940
00000170: 9de6 52c0 bdf3 7f3d 7f46 a2bf 055f 24bf
00000180: 1e82 44bd 21d8 ea3b 95e9 2dbf d1d8 8abf
00000190: 313c 423d c743 93bd e5f6 21bd 479a d0bf
000001a0: 455e aa3f eaf4 b8bf d4a0 7d3f e9e3 533e
000001b0: 9b02 183e 2535 4f3f d420 d7bf 90be 1c3f
000001c0: 49c1 ab3f eea9 a53d 7641 dabe e4cd 283f
000001d0: 9baf 963f 2964 aabf 715d 00bf 0a75 14be
000001e0: ad63 63bf 3608 143f 350a ff3f ef12 403f
000001f0: 6caa 8ebf 8ed0 1a3f 5d79 d0bd a321 413f
00000200: 758e 1b3f 8d14 a1bf d051 6a3f 69f7 f0be
00000210: f891 e63e 2305 763f d824 cc3e 7dbb 20be
00000220: f8ff c9be 1362 0b3f 63ca 3a3f 7d29 33bd
00000230: 2c88 cbbf f191 633e b90e f53e 0537 db3f
00000240: f035 07c0 8b5b a93f 5fd2 1f40 4b97 103f
00000250: 971b 4f3f d31b 22be 0bf8 bc3e 893b c53f
00000260: cc86 c4bf 4861 ca3f 3a0d 86bf 4321 80bf
00000270: 1001 2f40 4a3a 3d3e 50a0 ce3f 59af 24bf
00000280: 9437 39bf aaf4 f6bf 5c26 8abf 7c0a 413f
00000290: ab5c a1bf c872 993d ded9 963d 7a73 fe3f
000002a0: f992 a4bf 571d bb3f d0fe a73f 3e84 a93e
000002b0: bdb3 c03f a4a6 bd3f 6d48 aa3f b3e5 273e
000002c0: a56d c23f 475f b73d e5ae 5640 0056 c0be
000002d0: a5e8 d83e 5256 dfbf f2a9 84bf c7f0 38bf
000002e0: f634 da3f 5165 e83d 82dc 13c0 8dd6 203f
000002f0: 2ca5 27bf 643c 8a3f ce4f 633f e4b6 c4be
00000300: 595b c3bd be2a 94bf da71 fcbf cbc0 8b3f
00000310: 48a2 3fbf 1617 a13e df8d 25c0 a944 88be
00000320: da13 343f b2a3 acbf 48e2 413e 0485 a43e
00000330: 7bbf c73f 6e8b dabf 13b8 adbe 9354 d7bf
00000340: 226f 583e eae3 62bf 73ec 3b3f c930 9b3e
00000350: b8a2 023f cc7d 973f 566f 533e b175 80bf
00000360: 87d9 413f 2144 2640 121a 15bf 957f 8bbf
00000370: 154d 6bbf 8d88 4dbe 6b71 a0bf 3789 31bf
00000380: 2013 bf3e 2a42 f43e 4bf2 513f f1b6 bcbe
00000390: da84 81bf 4160 303f 43a3 21bf 91f0 b23f
000003a0: 1007 063f 645b 483f 5e1d 0bbf 0518 fbbe
000003b0: 125d 2a3e 9603 11c0 4d42 433f c5f7 7f3e
000003c0: 042c 893e 7390 adbe 49f3 c0bf 104a 5f3f
000003d0: 750c ad3e 881d 6a3f def2 f5bf 673d abbf
000003e0: 22c5 0cbe 2167 fb3f 32ea 89bc 892c 71bf
000003f0: 4a85 1040 9eaa a0bf acca 83bf 3803 4a3e

model.func.layer0_convnet.conv.fc.layer1.weight f4 [64, 64]
-0.526759 0.6768464 0.38865894 -1.0427223 0.7422336 0.022304485 -0.38732427 0.5314602
1.1606388 -1.9167069 1.5417291 1.0437657 0.06343753 -0.024994217 -1.1756873 -0.28222823
0.6145814 -0.11053863 1.3869927 -0.6416903 -0.9688325 -0.578958 0.76748735 0.8410384
-0.7509683 -0.3785244 0.901028 -0.54714215 0.2517884 -1.802469 -0.5556263 0.93334746
0.39610556 -0.5766995 -0.673513 1.4354026 -0.47884855 -1.277259 -1.1524433 -1.7542655
-0.81767404 2.1287243 -0.24474353 0.49347487 0.64262885 0.13219932 0.2967153 -1.2952818
0.23537135 -1.4045839 0.19893792 0.16280107 -2.333914 1.6466677 1.0730386 -0.54734796
-0.8979513 0.2513565 1.7871538 -1.3003973 -0.22636308 -0.06210228 0.25620484 -0.9463214
0.2879628 -1.0980136 -0.13413091 -0.30633238 0.37362546 0.033301223 -0.083030574 -1.1240176
0.19920482 -0.23265308 -1.1213634 1.9632047 0.4293587 0.51836836 -1.3292042 0.40072858
0.98534817 0.9956432 -0.11021133 -0.005196076 1.4591557 -0.111765504 1.7553743 -0.99572486
1.5603963 -0.40718547 -1.04248 2.0272224 0.33292934 -0.47337258 0.3829791 -0.5540678
-0.75380003 1.3081015 1.4332072 -1.422147 -0.28467962 -1.1373425 0.24127701 -0.44716492
-0.16491075 -0.5894223 -0.07429922 0.85309243 0.8031577 0.19892688 0.59984875 1.1074799
0.6258311 0.19915862 -1.1432273 -1.0562537 -1.128335 0.20219469 -0.8686397 0.6887989
0.21461233 0.035615154 -2.3554196 -1.0223184 -0.021140706 0.122791216 -1.3047714 0.30189708
0.63533926 -1.0628698 0.00524225 -1.3565382 -0.15973565 -1.5619301 -0.16886659 1.7515213
0.41484582 -1.5886735 0.2956175 0.32553002 0.30241776 0.8755579 -1.6145109 -1.2376623
-0.2104533 -0.3707505 -0.11749258 0.35662556 -1.1621369 -1.3975788 2.4731452 -0.61352354
-0.22050826 2.3199208 0.15116563 -0.20457417 0.13910805 1.6778445 2.2617984 -0.43076104
0.16457936 2.387603 -0.519064 2.1545548 0.4385371 0.6313833 -0.20213053 1.9660412
-2.300019 0.62128377 -1.6900856 2.6779535 0.26408538 2.1419988 2.5165744 0.2432991
0.08893344 0.47272298 -1.6077819 -0.94264036 1.6929954 0.6735118 -1.2102237 -0.45252976
-1.9261652 0.78800726 -1.1308813 1.9276686 -1.458711 -1.70309 0.37966084 0.37477618
-0.5467865 -0.16131012 -0.9691981 -1.4311539 -0.012475394 0.101045124 0.5133825 1.6282505
-1.4704616 -1.121062 1.7281902 -0.41250807 0.42795098 2.460427 1.5906069 1.3033669
-1.6264727 0.47431707 0.8783446 0.4886329 -1.3310558 -0.83150804 2.4098277 1.086862
-0.61705095 1.7257758 -0.009470639 0.32304028 0.28758153 -1.0501404 -0.4577293 -0.17064056
0.042137124 -1.6593835 -0.36122638 3.1402888 -0.12438289 -0.3108561 -0.6081527 0.62601477
-1.1647598 2.0608974 -1.0816658 0.36813483 -0.65791446 -1.4375753 -1.433476 -1.0588285
-2.871437 -0.28892246 -2.0629065 0.71212816 1.4821112 -0.33914718 0.010235468 1.5129532
0.076820545 -1.8953665 0.9649536 -3.0324774 0.1375847 0.5533656 0.86166364 -1.1540124
00000000: aed9 06bf ce45 2d3f 4efe c63e ed77 85bf
00000010: 0503 3e3f e5b7 b63c 5e4f c6be c70d 083f
00000020: d08f 943f a756 f5bf 6157 c53f 1d9a 853f
00000030: 89eb 813d acc0 ccbc ec7c 96bf 3880 90be
00000040: 3555 1d3f 1462 e2bd fa88 b13f d145 24bf
00000050: 6805 78bf 9736 14bf 0d7a 443f 4b4e 573f
00000060: 753f 40bf f3cd c1be c5a9 663f 8211 0cbf
00000070: 69ea 803e 4eb7 e6bf 863d 0ebf dcef 6e3f
00000080: 59ce ca3e 94a2 13bf 596b 2cbf 46bb b73f
00000090: a32b f5be 397d a3bf 4383 93bf c68b e0bf
000000a0: 1653 51bf 053d 0840 0c9e 7abe bda8 fc3e
000000b0: 5383 243f 425f 073e 11eb 973e cbcb a5bf
000000c0: 3005 713e 68c9 b3bf 62b6 4b3e 53b5 263e
000000d0: d95e 15c0 02c6 d23f 5459 893f ff1e 0cbf
000000e0: 23e0 65bf cdb1 803e 75c1 e43f 6b73 a6bf
000000f0: b9cb 67be f65e 7ebd 482d 833e 1f42 72bf
00000100: dc6f 933e b68b 8cbf 9d59 09be 99d7 9cbe
00000110: d64b bf3e dd66 083d ef0b aabd cfdf 8fbf
00000120: 59fc 4b3e 9c3c 6ebe d688 8fbf 4b4a fb3f
00000130: e7d4 db3e cab3 043f 5d23 aabf 4c2c cd3e
00000140: c73f 7c3f 79e2 7e3f 7ab6 e1bd d843 aabb
00000150: 9dc5 ba3f 50e5 e4bd 1bb0 e03f d3e7 7ebf
00000160: 11bb c73f 9d7a d0be fc6f 85bf 03be 0140
00000170: b775 aa3e e45d f2be d615 c43e 63d7 0dbf
00000180: 0af9 40bf df6f a73f 5573 b73f ea08 b6bf
00000190: 87c1 91be 7094 91bf 5211 773e cdf2 e4be
000001a0: 5dde 28be 61e4 16bf 312a 98bd 4464 5a3f
000001b0: be9b 4d3f 7db3 4b3e b08f 193f e7c1 8d3f
000001c0: 7836 203f 3df0 4b3e 4655 92bf 5233 87bf
000001d0: 486d 90bf 200c 4f3e 2c5f 5ebf 2055 303f
000001e0: 56c3 5b3e 32e1 113d 32bf 16c0 54db 82bf
000001f0: 462f adbc f679 fb3d c002 a7bf 4192 9a3e
00000200: 98a5 223f 1e0c 88bf 2ec7 ab3b 0ba3 adbf
00000210: be91 23be 53ed c7bf 5deb 2cbe da31 e03f
00000220: ac66 d43e a759 cbbf 2d5b 973e dfab a63e
00000230: 80d6 9a3e 9024 603f 4ba8 cebf b86b 9ebf
00000240: 1281 57be 02d3 bdbe f39f f0bd a097 b63e
00000250: e7c0 94bf dde3 b2bf 0348 1e40 e10f 1dbf
00000260: ebcc 61be 9579 1440 2acb 1a3e e47b 51be
00000270: 5772 0e3e 9cc3 d63f 4ec1 1040 b68c dcbe
00000280: 7e87 283e 7dce 1840 61e1 04bf 3ae4 0940
00000290: ef87 e03e 56a2 213f 4efb 4ebe 3da7 fb3f
000002a0: 8333 13c0 740c 1f3f ba54 d8bf 9763 2b40
000002b0: 3336 873e 8216 0940 8e0f 2140 6623 793e
000002c0: bc22 b63d bf08 f23e cccb cdbf e150 71bf
000002d0: 13b4 d83f 456b 2c3f 9ce8 9abf fbb1 e7be
000002e0: 958c f6bf d8ba 493f b8c0 90bf d8bd f63f
000002f0: 0bb7 babf dafe d9bf e862 c23e aae2 bf3e
00000300: 33fa 0bbf 7b2e 25be 5e1d 78bf 0d30 b7bf
00000310: 9865 4cbc bff0 ce3d 096d 033f 836a d03f
00000320: 1638 bcbf f67e 8fbf 5635 dd3f 4234 d3be
00000330: 641c db3e a377 1d40 0299 cb3f bad4 a63f
00000340: 4230 d0bf b0d9 f23e 31db 603f 172e fa3e
00000350: 0960 aabf b6dd 54bf 9e3a 1a40 4b1e 8b3f
00000360: 0df7 1dbf 39e6 dc3f bd2a 1bbc 8965 a53e
00000370: e33d 933e 006b 86bf 7f5b eabe 66bc 2ebe
00000380: fa97 2c3d ae66 d4bf aaf2 b8be 7efa 4840
00000390: 75bc febd 8828 9fbe e5af 1bbf 8142 203f
000003a0: d916 95bf bee5 0340 0674 8abf 2b7c bc3e
000003b0: 156d 28bf 7802 b8bf 247c b7bf b187 87bf
000003c0: a0c5 37c0 a5ed 93be a906 04c0 084e 363f
000003d0: d2b5 bd3f b3a4 adbe aab2 273c 73a8 c13f
000003e0: 1754 9d3d 5f9b f2bf 3307 773f 1c14 42c0
000003f0: 01e3 0c3e 5ea9 0d3f fd95 5c3f aeb6 93bf

model.func.layer0_convnet.conv.fc.layer2.weight f4 [64, 16]
-0.22388415 0.5401908 -0.4918418 2.369019 -0.4229075 0.5778856 -1.391163 -0.45320442
-0.40470427 1.3814018 -1.9663548 -1.3913108 0.2997934 1.612267 0.45784014 2.1213558
1.7146771 -0.8503945 0.5895314 -0.051048964 2.1203184 0.45908 -0.26117048 -1.1494571
1.9833953 -0.827504 -0.4157522 -0.36916426 -0.43557844 1.1402893 -0.17945676 0.8861674
2.0171661 -1.9743919 0.08012043 0.10811207 0.6465947 -0.12022055 0.4358075 -0.91991824
-0.13769014 1.2615865 -1.134345 0.28416246 -0.4987445 -0.32542086 0.9269975 -0.14658193
-1.4382571 -0.32645988 -1.0058304 0.059205048 -0.7815795 0.5322006 -0.71691525 -1.3481448
-0.39013442 0.12460849 -3.2855809 -0.36860052 -0.7863275 -1.6749251 0.7806866 0.9428852
-0.5674174 0.95279205 -0.46783724 -0.00073137553 2.4509468 -0.10617858 1.2649513 1.247872
0.76631737 -1.8596729 1.2945744 0.82883805 2.4987156 -1.741097 0.42151734 -0.8608321
-0.6235611 0.24718581 -1.37144 -0.19831946 0.5553243 -1.2937313 -0.016091933 1.3282502
1.148205 -0.1851731 -0.27871752 -0.06975292 -0.7442801 -0.256055 -1.5804664 0.15724368
-0.4652523 0.15407172 -0.39044818 1.1714644 0.42631423 1.0786048 0.5008746 0.26977986
0.4878645 0.30905133 0.058048356 0.105975755 1.9054136 1.5457975 1.2373359 -1.5161116
-1.7080821 -0.19436657 1.2659262 -1.0726539 1.3297427 0.803205 -0.45051566 0.996584
-2.6283598 0.5445489 1.7798425 0.34577337 1.3540905 0.9661793 -1.1334748 1.156973
-0.1753872 0.2717762 -1.1084405 -0.61757016 -0.72015554 0.644042 -0.56953 -1.4588648
-2.8439655 -0.6813389 -0.17384303 -1.7440485 -0.2330961 -0.22961831 -1.9927369 1.870178
0.6097526 -1.0778835 -0.3232741 1.2846409 2.2703168 0.2847098 -0.6120788 1.090609
1.0444198 2.6969154 -0.6661353 1.1252201 0.42074955 -0.26121715 2.8384092 1.2636437
-1.4128222 0.6957338 -1.8582401 0.6049423 -1.3050938 -0.25204405 -1.0812865 0.14398438
-1.3585895 -1.3686277 1.271835 -1.6995245 -0.37104467 0.5225255 0.40098917 0.0011092434
1.5955832 1.1749073 0.6859169 0.58903515 0.8463779 0.015361377 -0.01636487 -0.6748756
-0.71983695 0.28361112 0.16909231 -1.4920949 0.62162334 0.79015684 0.5175116 0.30231148
-0.120304175 -0.7459449 -0.05725634 -0.026234038 0.6189699 -1.7156224 -0.041838486 0.3234579
-2.339073 -1.4918363 0.8410961 -1.2039845 -0.03798028 -0.96396077 -2.6908433 -0.53324664
-0.06703548 1.2684433 -1.0456749 -1.4674199 -0.6068523 -0.19440247 0.02526995 0.24511649
-1.7404649 -1.8559923 0.29456586 -1.1801491 0.7972506 0.3030445 -1.9423627 0.4394878
0.8349148 0.9282344 0.89192337 -0.7699113 0.28861257 0.309819 0.25888315 -0.1983618
1.3648018 1.9870657 0.11594302 0.96222264 -0.1005789 -1.1365777 -0.5039309 0.5546533
-0.40989476 0.6635328 -1.3970764 0.049854323 -0.32247555 -0.051586337 -1.2671767 0.9043292
-2.1761234 0.0036845282 0.007774419 -0.111058325 0.20297073 -1.6626017 0.77900004 -0.002189721
00000000: e341 65be f249 0a3f b0d2 fbbe 029e 1740
00000010: 5587 d8be 50f0 133f a111 b2bf 690a e8be
00000020: 6635 cfbe c6d1 b03f 84b1 fbbf 7916 b2bf
00000030: 857e 993e c45e ce3f 066a ea3e 4bc4 0740
00000040: 8a7a db3f 74b3 59bf 88eb 163f b818 51bd
00000050: 4cb3 0740 890c eb3e 23b8 85be 6921 93bf
00000060: e6df fd3f 4dd7 53bf 79dd d4be 1903 bdbe
00000070: 2304 dfbe 00f5 913f 83c3 37be dedb 623f
00000080: 4019 0140 e0b8 fcbf 2e16 a43d dc69 dd3d
00000090: 3b87 253f 3136 f6bd 2922 df3e c37f 6bbf
000000a0: a5fe 0cbe ab7b a13f 3832 91bf be7d 913e
000000b0: 705b ffbe 909d a6be b54f 6d3f 9319 16be
000000c0: cf18 b8bf c025 a7be 0dbf 80bf fe80 723d
000000d0: 9815 48bf 4c3e 083f c287 37bf 0290 acbf
000000e0: b3bf c7be bc32 ff3d f546 52c0 35b9 bcbe
000000f0: c24c 49bf f263 d6bf 14db 473f ed60 713f
00000100: 4442 11bf 2eea 733f 5d88 efbe c8b9 3fba
00000110: 50dc 1c40 2874 d9bd ede9 a13f 45ba 9f3f
00000120: 602d 443f c309 eebf 9db4 a53f bb2e 543f
00000130: f5ea 1f40 44dc debf 1fd1 d73e 7e5f 5cbf
00000140: b3a1 1fbf 471e 7d3e 598b afbf 4214 4bbe
00000150: bc29 0e3f fd98 a5bf 3bd3 83bc 1a04 aa3f
00000160: 62f8 923f 049e 3dbe 10b4 8ebe 9eda 8ebd
00000170: 2489 3ebf a419 83be b94c cabf 7d04 213e
00000180: 8d35 eebe fac4 1d3e d3e8 c7be 8cf2 953f
00000190: dc45 da3e b90f 8a3f 5139 003f 9620 8a3e
000001a0: 60c9 f93e fa3b 9e3e 1dc4 6d3d d109 d93d
000001b0: 98e4 f33f b1dc c53f 0661 9e3f f20f c2bf
000001c0: 6fa2 dabf 0808 47be df09 a23f b94c 89bf
000001d0: 0235 aa3f d89e 4d3f fda9 e6be 2120 7f3f
000001e0: 0c37 28c0 8f67 0b3f e1d1 e33f 3509 b13e
000001f0: d652 ad3f 8757 773f b415 91bf b117 943f
00000200: b498 33be 4026 8b3e 61e1 8dbf 1419 1ebf
00000210: 1d5c 38bf f0df 243f b8cc 11bf 15bc babf
00000220: 8803 36c0 3a6c 2ebf e803 32be fb3c dfbf
00000230: beb0 6ebe 1021 6bbe 0112 ffbf fe61 ef3f
00000240: bf18 1c3f 16f8 89bf 2f84 a5be 1d6f a43f
00000250: df4c 1140 7cc5 913e 32b1 1cbf 1399 8b3f
00000260: 8caf 853f 439a 2c40 d887 2abf 3607 903f
00000270: 7c6c d73e 41be 85be 7fa8 3540 14bf a13f
00000280: 5cd7 b4bf 9c1b 323f d0da edbf 80dd 1a3f
00000290: 500d a7bf eb0b 81be 9967 8abf a470 133e
000002a0: 43e6 adbf 312f afbf 7dcb a23f 058a d9bf
000002b0: 91f9 bdbe 3bc4 053f 744e cd3e 0864 913a
000002c0: 123c cc3f 5d63 963f 4098 2f3f 02cb 163f
000002d0: 39ac 583f 49ae 7b3c 9f0f 86bc a6c4 2cbf
000002e0: 3c47 38bf 7a35 913e 8926 2d3e f7fc bebf
000002f0: b522 1f3f b847 4a3f a47b 043f 92c8 9a3e
00000300: 0962 f6bd 3ff6 3ebf a085 6abd c4e8 d6bc
00000310: d074 1e3f 8499 dbbf d55e 2bbd 469c a53e
00000320: 5fb3 15c0 7ef4 bebf 1352 573f 2a1c 9abf
00000330: 3691 1bbd 22c6 76bf c736 2cc0 da82 08bf
00000340: e649 89bd 5a5c a23f add8 85bf 6ad4 bbbf
00000350: ac5a 1bbf 7111 47be ed02 cf3c d1ff 7a3e
00000360: 8ec7 debf 2891 edbf 56d1 963e 200f 97bf
00000370: 9e18 4c3f a628 9b3e 579f f8bf 8b04 e13e
00000380: fabc 553f c5a0 6d3f 1755 643f e818 45bf
00000390: 07c5 933e 99a0 9e3e 558c 843e 5b1f 4bbe
000003a0: d3b1 ae3f 2b58 fe3f 8973 ed3d 3954 763f
000003b0: 4ffc cdbd 617b 91bf 9e01 01bf c2fd 0d3f
000003c0: badd d1be 49dd 293f 66d3 b2bf 0c34 4c3d
000003d0: 841b a5be 324c 53bd d932 a2bf 1e82 673f
000003e0: 9b45 0bc0 2078 713b 8ec0 fe3b 8c72 e3bd
000003f0: 8fd7 4f3e 22d0 d4bf 8c6c 473f 6c81 0fbb

model.func.layer0_convnet.conv.tp.output_mask f4 [32]
1.0 1.0 1.0 1.0 1.0 1.0 1.0 1.0
1.0 1.0 1.0 1.0 1.0 1.0 1.0 1.0
1.0 1.0 1.0 1.0 1.0 1.0 1.0 1.0
1.0 1.0 1.0 1.0 1.0 1.0 1.0 1.0
00000000: 0000 803f 0000 803f 0000 803f 0000 803f
00000010: 0000 803f 0000 803f 0000 803f 0000 803f
00000020: 0000 803f 0000 803f 0000 803f 0000 803f
00000030: 0000 803f 0000 803f 0000 803f 0000 803f
00000040: 0000 803f 0000 803f 0000 803f 0000 803f
00000050: 0000 803f 0000 803f 0000 803f 0000 803f
00000060: 0000 803f 0000 803f 0000 803f 0000 803f
00000070: 0000 803f 0000 803f 0000 803f 0000 803f

model.func.layer0_convnet.conv.linear_2.weight f4 [192]
0.22863653 -1.9107713 1.2364316 0.43156162 -0.6265302 -0.8553004 -1.3215852 1.572868
-1.1291845 -0.2972371 0.08898016 -1.0499886 1.576524 0.5242566 0.1344604 -0.9439709
-0.37581915 -1.7077808 -0.76588035 -0.14345135 1.3276726 1.0150226 -1.3566967 -1.6161416
0.69075507 -0.3105151 -0.34326765 0.4328293 -0.38298696 -0.32810184 0.15494873 -0.009480253
-0.6651721 -0.64210033 -0.46061185 0.6421895 -0.8750238 -0.5723725 1.8870686 -0.7937059
1.4811522 -1.7553606 0.5585866 -0.6813279 1.0622319 0.23111905 -0.5414309 0.86249584
-0.24131654 0.43602178 -0.40930447 -0.53193307 -0.016680505 0.4454203 -1.1078055 -0.09762316
0.35756 2.9759865 1.970106 -2.2093394 2.1943128 0.8396326 -1.7105743 0.29557037
0.21556053 -0.34538382 -0.0420219 1.594389 1.3322622 -0.35166106 -3.0149398 0.84674567
0.052631717 0.4134608 -0.69866586 0.96559423 0.1527921 0.19244726 0.57429904 -2.0004523
1.320281 0.46113098 0.4061141 -1.1864619 -1.0100021 -2.0298479 0.7001413 1.4286311
0.97861695 1.7460537 -1.4216679 -1.5542172 1.4263533 -0.5810881 1.0592699 -0.96843016
0.759027 1.1010191 -0.9350465 1.457075 -0.49258643 1.3671703 0.34855062 -1.7466322
-3.698015 0.41430995 -0.7225214 0.014670429 1.9163632 1.0670786 0.9017808 -1.4202893
1.7855921 1.2013607 0.98250455 -1.0103831 -0.6385874 1.3207912 -0.0049359896 0.8682236
0.654298 1.7716628 -1.5355682 0.8017479 -1.3562914 1.4333041 -1.6866508 1.694208
1.2094288 0.9893576 -1.1180587 -2.0769331 -1.5529604 0.14598145 -3.215233 -1.5204796
0.0905822 -4.1480165 -1.7112442 -0.4631378 0.30527204 1.2887312 0.37141913 1.0272276
0.7959493 2.6844442 1.9908776 -1.2752799 1.1550133 -2.8236637 -0.85724723 -0.44049233
-0.965249 0.7541668 -0.7477017 -0.7406329 1.3134142 0.9570745 0.11977453 0.36006215
0.64914227 -0.28309676 -0.28484163 0.5656445 0.12978154 -2.1526341 1.5161303 -0.6496343
-0.774001 0.762032 0.8694634 -0.64673597 -2.8792975 0.55822897 -0.56057304 2.9242666
0.7700855 1.3976568 1.489576 0.3520916 -0.5661771 1.2278894 0.6188084 2.511353
1.6660211 -0.08061366 -1.1430553 -0.8566232 -0.667308 0.20688808 -1.0134978 -1.4281923
00000000: b21f 6a3e 2794 f4bf 6443 9e3f a5f5 dc3e
00000010: 4864 20bf f8f4 5abf b429 a9bf bd53 c93f
00000020: 1e89 90bf 762f 98be 3b3b b63d 0766 86bf
00000030: 8acb c93f ae35 063f fdaf 093e 14a8 71bf
00000040: 5e6b c0be 9098 dabf bc10 44bf e9e4 12be
00000050: 2df1 a93f 43ec 813f 3da8 adbf badd cebf
00000060: 53d5 303f d6fb 9ebe c7c0 afbe cd9b dd3e
00000070: de16 c4be f7fc a7be e1aa 1e3e 1053 1bbc
00000080: b848 2abf b060 24bf 51d5 ebbe 8866 243f
00000090: 8f01 60bf 0187 12bf 778b f13f 4f30 4bbf
000000a0: 6596 bd3f a8af e0bf 88ff 0e3f 816b 2ebf
000000b0: 37f7 873f 79aa 6c3e 379b 0abf 87cc 5c3f
000000c0: af1b 77be 3f3e df3e 5b90 d1be c42c 08bf
000000d0: 8ea5 88bc 210e e43e 92cc 8dbf a7ee c7bd
000000e0: 1b12 b73e 9076 3e40 6f2c fc3f d165 0dc0
000000f0: 9f6f 0c40 29f2 563f 19f4 dabf 0055 973e
00000100: e6bb 5c3e 26d6 b0be 281f 2cbd f014 cc3f
00000110: 9187 aa3f eb0c b4be c6f4 40c0 53c4 583f
00000120: 5b94 573d 22b1 d33e c4db 32bf 2f31 773f
00000130: 8875 1c3e e510 453e 4305 133f 6907 00c0
00000140: f8fe a83f 5c19 ec3e 30ee cf3e fcdd 97bf
00000150: c047 81bf 07e9 01c0 763c 333f 62dd b63f
00000160: a486 7a3f b07e df3f 37f9 b5bf 97f0 c6bf
00000170: bf92 b63f 31c2 14bf 2896 873f 0aeb 77bf
00000180: 984f 423f 32ee 8c3f 355f 6fbf 6f81 ba3f
00000190: 4a34 fcbe 70ff ae3f 3a75 b23e a591 dfbf
000001a0: 47ac 6cc0 6f20 d43e 2af7 38bf 3d5c 703c
000001b0: 644b f53f 0896 883f 1bdb 663f 0acc b5bf
000001c0: 488e e43f 30c6 993f 6b85 7b3f 3c54 81bf
000001d0: 777a 23bf b00f a93f 15be a1bb e743 5e3f
000001e0: 1380 273f d9c5 e23f 808d c4bf 5a3f 4d3f
000001f0: f59a adbf 8276 b73f 2ce4 d7bf cfdb d83f
00000200: 90ce 9a3f 8a46 7d3f 8c1c 8fbf 79ec 04c0
00000210: 68c7 c6bf 297c 153e 61c6 4dc0 139f c2bf
00000220: 2983 b93d 8dbc 84c0 0d0a dbbf 6620 edbe
00000230: 9e4c 9c3e 25f5 a43f a62a be3e 327c 833f
00000240: 55c3 4b3f efcd 2b40 14d5 fe3f 5f3c a3bf
00000250: 7ad7 933f e8b6 34c0 8e74 5bbf 3688 e1be
00000260: 8f1a 77bf 1311 413f 6169 3fbf 1e9a 3dbf
00000270: f51d a83f d602 753f 594c f53d 115a b83e
00000280: 302e 263f 0ff2 90be c3d6 91be 14ce 103f
00000290: 74e5 043e c2c4 09c0 8f10 c23f 6f4e 26bf
000002a0: ee24 46bf 8714 433f 2795 5e3f 7d90 25bf
000002b0: 6946 38c0 18e8 0e3f b781 0fbf 2f27 3b40
000002c0: 5324 453f 6be6 b23f 6daa be3f 5a45 b43e
000002d0: fcf0 10bf 7b2b 9d3f 3a6a 1e3f 02ba 2040
000002e0: 2e40 d53f c618 a5bd a34f 92bf a84b 5bbf
000002f0: b2d4 2abf 78da 533e 4cba 81bf 01cf b6bf

model.func.layer0_convnet.conv.linear_2.output_mask f4 [40]
1.0 1.0 1.0 1.0 1.0 1.0 1.0 1.0
1.0 1.0 1.0 1.0 1.0 1.0 1.0 1.0
1.0 1.0 1.0 1.0 1.0 1.0 1.0 1.0
1.0 1.0 1.0 1.0 1.0 1.0 1.0 1.0
1.0 1.0 1.0 1.0 1.0 1.0 1.0 1.0
00000000: 0000 803f 0000 803f 0000 803f 0000 803f
00000010: 0000 803f 0000 803f 0000 803f 0000 803f
00000020: 0000 803f 0000 803f 0000 803f 0000 803f
00000030: 0000 803f 0000 803f 0000 803f 0000 803f
00000040: 0000 803f 0000 803f 0000 803f 0000 803f
00000050: 0000 803f 0000 803f 0000 803f 0000 803f
00000060: 0000 803f 0000 803f 0000 803f 0000 803f
00000070: 0000 803f 0000 803f 0000 803f 0000 803f
00000080: 0000 803f 0000 803f 0000 803f 0000 803f
00000090: 0000 803f 0000 803f 0000 803f 0000 803f

model.func.layer0_convnet.conv.sc.weight f4 [384]
-0.6732928 1.7380195 -0.36129445 0.25150043 0.72694284 -2.109794 0.8604008 0.64024454
-1.219279 -0.14975914 0.64764446 -2.5756638 1.4935943 -0.90376824 0.37747207 1.86983
-0.7968765 0.7432117 -2.028151 1.202098 -1.5552881 0.33031148 0.40456793 -0.8967002
0.793864 -1.8314598 -1.513079 0.14213556 -0.5440797 -1.0665303 0.54416263 0.002431447
-1.7075506 -0.72169065 -0.39026305 -0.30226368 -1.0970701 -1.1064793 0.955261 0.692711
-0.5226971 0.6083401 1.571494 -0.3045094 0.76359373 -2.1335053 0.3723302 1.0883878
0.4264695 0.5237887 1.0304457 1.0304525 1.278565 -0.4231011 0.9067428 1.5921148
0.13746999 1.033144 1.5987494 -2.0761132 0.3239206 0.58436203 1.3681614 1.1550844
0.06258653 0.8957648 0.57687557 0.5549829 -1.041698 -0.2615789 0.9459532 -0.22327875
0.20215274 0.63563734 -1.9396707 -0.7033286 -0.3720741 -1.3278081 -1.2421695 -0.44556934
-0.69096434 0.6877207 -0.6195496 -0.19394284 1.5063422 -2.086126 -0.58253354 -1.3246605
-0.28497532 0.84968907 2.2195392 0.47462547 0.8441854 -1.8978807 -0.48744777 -0.52177185
-0.031205088 0.49167326 -1.1102316 -0.8901159 1.3402499 0.51914436 0.85098463 -0.85178596
-0.98877853 -0.67488223 1.6794494 -2.883849 -0.019135991 -0.14895155 -0.1383223 1.4622406
0.6372516 -0.77078694 -1.4723805 1.7281121 0.36176372 -0.14497873 -0.62024593 0.26879326
-0.43231755 -0.5509007 1.4543478 -0.7642813 -1.7035543 -0.3446118 -0.33722362 2.5657086
-1.0408158 -0.50023896 -1.7717017 -1.7076964 -1.1548709 -0.16928005 0.18429421 0.040162314
1.3781126 2.892093 -0.29369482 -0.112517826 -0.75385946 -2.6091354 0.96217626 -0.3827364
0.22368078 -0.8131974 -0.41521674 0.27297398 -0.5333823 0.9324317 -0.26283488 0.027123258
1.0099144 1.4411966 -0.19311826 1.1354892 -0.9127551 -0.5123961 0.8617625 -2.4105606
-1.0994966 1.900568 0.79414845 -2.384772 0.47023043 -1.5646607 1.5021946 0.937559
-1.0309144 0.72783977 1.0810363 0.09489395 -0.49334913 0.021562364 1.8367108 0.2240343
0.0016365363 0.6787962 0.9779304 1.4172897 0.24558769 0.4619826 0.71669745 0.63101417
0.73569685 -3.0580018 0.11751258 0.50434196 0.06524263 2.3362947 0.27560654 -0.21087185
1.7373297 0.6132738 0.11876306 -0.6154639 0.17985357 1.3825791 -0.35897854 0.25932834
1.6766825 -1.8428373 2.9062023 -1.8879353 -0.11252749 2.631289 -1.0854762 2.2707405
0.93917924 -1.370502 -0.5242384 1.1052942 -0.24188511 -0.7083802 -2.4770448 -0.09268758
2.583465 -1.5188501 1.1555723 0.02697796 1.1573831 4.169208 -0.9889745 -0.36787674
-1.3998656 0.7222414 -0.34668225 -0.9573995 -0.2020596 0.56093127 -0.38458967 2.5019848
0.48761517 -3.065507 -0.5946352 -0.034753352 -0.40883696 1.8346877 0.52810365 0.90059733
-0.6077127 2.294346 -0.5192612 -0.37712765 2.8911047 -1.842888 2.1190126 0.19551474
0.009742498 -0.5776894 -0.2738065 -2.5140545 3.194819 0.3492846 -0.3311 2.5499463
00000000: eb5c 2cbf 6c77 de3f 96fb b8be aac4 803e
00000010: ed18 3a3f dd06 07c0 3a43 5c3f 11e7 233f
00000020: 5611 9cbf 765a 19be 07cc 253f add7 24c0
00000030: 192e bf3f 5b5d 67bf 0544 c13e 9756 ef3f
00000040: 1900 4cbf 1f43 3e3f 3acd 01c0 59de 993f
00000050: ae13 c7bf 961e a93e 8723 cf3e 258e 65bf
00000060: ac3a 4b3f 466d eabf 93ac c1bf fc8b 113e
00000070: cf48 0bbf 1184 88bf 3e4e 0b3f e958 1f3b
00000080: 0591 dabf b8c0 38bf 8fd0 c7be 4ec2 9abe
00000090: cb6c 8cbf 1da1 8dbf fc8b 743f 8255 313f
000000a0: 7acf 05bf 2dbc 1b3f b726 c93f a8e8 9bbe
000000b0: e17a 433f 5a8b 08c0 10a2 be3e 4b50 8b3f
000000c0: 365a da3e 0417 063f a5e5 833f dee5 833f
000000d0: 05a8 a33f b5a0 d8be 4c20 683f 6bca cb3f
000000e0: efc4 0c3e 103e 843f d2a3 cc3f 0adf 04c0
000000f0: ecd8 a53e c098 153f ea1f af3f ced9 933f
00000100: 5e2d 803d d850 653f 1eae 133f 5c13 0e3f
00000110: 5c56 85bf abed 85be fd29 723f 2fa3 64be
00000120: 2101 4f3e 21b9 223f 2147 f8bf 580d 34bf
00000130: 7f80 bebe 9ef5 a9bf 69ff 9ebf aa21 e4be
00000140: 0ae3 30bf 770e 303f cd9a 1ebf f498 46be
00000150: d2cf c03f 1783 05c0 eb20 15bf 7a8e a9bf
00000160: 49e8 91be 3985 593f ee0c 0e40 1c02 f33e
00000170: 891c 583f c1ed f2bf c192 f9be d792 05bf
00000180: d0a1 ffbc 99bc fb3e 121c 8ebf a3de 63bf
00000190: 4f8d ab3f a5e6 043f 21da 593f a50e 5abf
000001a0: 9720 7dbf 15c5 2cbf 33f8 d63f fb90 38c0
000001b0: 15c3 9cbc c186 18be 5ca4 0dbe b32a bb3f
000001c0: ec22 233f 4b52 45bf f776 bcbf c732 dd3f
000001d0: 1839 b93e 4e75 14be 70c8 1ebf 459f 893e
000001e0: ba58 ddbe d407 0dbf 1228 ba3f f0a7 43bf
000001f0: 110e dabf f570 b0be 93a8 acbe 9234 2440
00000200: 7439 85bf a90f 00bf 1fc7 e2bf cc95 dabf
00000210: cfd2 93bf c057 2dbe 9fb7 3c3e 3d81 243d
00000220: fe65 b03f 0d18 3940 2b5f 96be bf6f e6bd
00000230: effc 40bf 13fc 26c0 2f51 763f 07f6 c3be
00000240: 930c 653e b42d 50bf 4a97 d4be 3fc3 8b3e
00000250: be8b 08bf d8b3 6e3f 4b92 86be 9831 de3c
00000260: e044 813f 2179 b83f cbc0 45be b657 913f
00000270: 51aa 69bf 642c 03bf 789c 5c3f a046 1ac0
00000280: 4ebc 8cbf d045 f33f 504d 4b3f 1ba0 18c0
00000290: 0bc2 f03e cd46 c8bf ea47 c03f de03 703f
000002a0: 01f5 83bf b553 3a3f 665f 8a3f c257 c23d
000002b0: 4298 fcbe 8ea3 b03c 5719 eb3f 3f69 653e
000002c0: 0c81 d63a 96c5 2d3f a659 7a3f c069 b53f
000002d0: 577b 7b3e fc88 ec3e 7c79 373f 258a 213f
000002e0: a156 3c3f 4db6 43c0 6faa f03d 8e1c 013f
000002f0: ee9d 853d da85 1540 4d1c 8d3e caee 57be
00000300: d260 de3f 83ff 1c3f 0c3a f33d 0b8f 1dbf
00000310: 892b 383e 5af8 b03f 09cc b7be afc6 843e
00000320: 889d d63f 18e2 ebbf 38ff 3940 dda7 f1bf
00000330: d074 e6bd 0a67 2840 e2f0 8abf d053 1140
00000340: 0d6e 703f 9c6c afbf 7d34 06bf 487a 8d3f
00000350: bbb0 77be 6858 35bf e787 1ec0 fcd2 bdbd
00000360: 7e57 2540 ae69 c2bf cbe9 933f e200 dd3c
00000370: 2125 943f 276a 8540 6f2d 7dbf 575a bcbe
00000380: cc2e b3bf d0e4 383f 5680 b1be 2218 75bf
00000390: b6e8 4ebe 3199 0f3f f0e8 c4be 8520 2040
000003a0: b2a8 f93e 4431 44c0 033a 18bf 8859 0ebd
000003b0: 1453 d1be 0cd7 ea3f cd31 073f 8c8d 663f
000003c0: 0f93 1bbf 91d6 1240 4dee 04bf e016 c1be
000003d0: dc07 3940 c1e3 ebbf e79d 0740 0435 483e
000003e0: 009f 1f3c 74e3 13bf 5e30 8cbe 45e6 20c0
000003f0: ea77 4c40 6ed5 b23e f085 a9be 5232 2340

model.func.layer0_convnet.conv.sc.output_mask f4 [40]
1.0 1.0 1.0 1.0 1.0 1.0 1.0 1.0
1.0 1.0 1.0 1.0 1.0 1.0 1.0 1.0
0.0 0.0 0.0 0.0 0.0 0.0 0.0 0.0
0.0 0.0 0.0 0.0 0.0 0.0 0.0 0.0
0.0 0.0 0.0 0.0 0.0 0.0 0.0 0.0
00000000: 0000 803f 0000 803f 0000 803f 0000 803f
00000010: 0000 803f 0000 803f 0000 803f 0000 803f
00000020: 0000 803f 0000 803f 0000 803f 0000 803f
00000030: 0000 803f 0000 803f 0000 803f 0000 803f
00000040: 0000 0000 0000 0000 0000 0000 0000 0000
00000050: 0000 0000 0000 0000 0000 0000 0000 0000
00000060: 0000 0000 0000 0000 0000 0000 0000 0000
00000070: 0000 0000 0000 0000 0000 0000 0000 0000
00000080: 0000 0000 0000 0000 0000 0000 0000 0000
00000090: 0000 0000 0000 0000 0000 0000 0000 0000

model.func.layer1_convnet.equivariant_nonlin.mul.output_mask f4 [24]
1.0 1.0 1.0 1.0 1.0 1.0 1.0 1.0
1.0 1.0 1.0 1.0 1.0 1.0 1.0 1.0
1.0 1.0 1.0 1.0 1.0 1.0 1.0 1.0
00000000: 0000 803f 0000 803f 0000 803f 0000 803f
00000010: 0000 803f 0000 803f 0000 803f 0000 803f
00000020: 0000 803f 0000 803f 0000 803f 0000 803f
00000030: 0000 803f 0000 803f 0000 803f 0000 803f
00000040: 0000 803f 0000 803f 0000 803f 0000 803f
00000050: 0000 803f 0000 803f 0000 803f 0000 803f

model.func.layer1_convnet.conv.linear_1.weight f4 [128]
-1.2905833 1.1210171 0.7212629 0.69100815 -1.6418141 1.6003443 -0.32141644 -0.44605207
-0.5765291 0.99246204 -1.3220247 -2.3174074 0.9650501 -0.25401482 0.92853016 0.020098044
0.27127498 -0.6830258 0.5364029 -0.8446058 -1.6258571 2.3289962 -0.27552944 1.8196912
1.5590202 0.5553733 -1.0834924 0.61725605 -1.3828639 -0.15133062 1.0870181 -2.5019732
2.3135793 2.3890793 0.122313805 -1.000577 -1.1658057 -0.6835754 1.3968148 0.3852491
0.8631842 -0.37872505 -1.1836864 1.2840638 -0.1059122 -0.7673179 -0.42711678 -1.6024324
0.1074776 -0.106708474 0.3010827 0.6809586 0.4468374 0.105565906 -0.50810355 -0.4435771
0.05803005 0.8241613 -1.716895 -0.7668754 -0.329206 -0.20488922 -0.47449052 -0.14712408
0.33683172 -0.61505693 -3.1222389 0.8055534 2.2971401 -0.31063622 -1.5323523 0.5686329
0.2680224 -1.0086529 3.4205887 1.3227098 -1.982771 1.0473565 1.1643715 -1.2867492
0.82891554 -0.09369589 1.7649912 3.0263352 -0.18705295 -0.50957465 1.6655582 -0.62995195
-1.753078 0.23676133 1.3157029 1.4991605 -0.77117366 -1.1855491 1.6405983 0.43202126
1.634559 -1.5279654 0.20132504 -1.0701104 -0.9625369 -1.0583 -1.0591617 -3.0224254
-1.800406 -0.48315606 0.36027965 1.5028217 -1.0812421 -1.069698 0.33518818 1.5137441
1.1509733 0.60451204 -0.7674166 -0.87733614 0.12960438 -2.2892845 -1.4134434 -2.124412
-0.07918411 0.60388577 0.13171569 -1.609246 1.7501627 0.6326468 0.7313629 -0.32638147
00000000: d531 a5bf 7d7d 8f3f afa4 383f e9e5 303f
00000010: f726 d2bf 15d8 cc3f b290 a4be f060 e4be
00000020: 6997 13bf fe11 7e3f 1b38 a9bf 6750 14c0
00000030: 860d 773f 3b0e 82be 27b4 6d3f a7a4 a43c
00000040: 8ee4 8a3e c7da 2ebf b351 093f 1638 58bf
00000050: 161c d0bf 460e 1540 3212 8dbe a4eb e83f
00000060: f98d c73f f22c 0e3f e1af 8abf 7e04 1e3f
00000070: af01 b1bf 6af6 1abe 6923 8b3f 5420 20c0
00000080: af11 1440 ade6 1840 a97f fa3d e812 80bf
00000090: 1f39 95bf ccfe 2ebf d4ca b23f 5f3f c53e
000000a0: a4f9 5c3f 40e8 c1be 0983 97bf 345c a43f
000000b0: 7fe8 d8bd f26e 44bf 0daf dabe 811c cdbf
000000c0: 371d dc3d f989 dabd 8327 9a3e 4e53 2e3f
000000d0: dfc7 e43e f032 d83d 1313 02bf 8a1c e3be
000000e0: ebb0 6d3d 3cfc 523f 37c3 dbbf f251 44bf
000000f0: b08d a8be 7bce 51be 6cf0 f2be b2a7 16be
00000100: 3575 ac3e 5f74 1dbf c3d2 47c0 bf38 4e3f
00000110: 5804 1340 b60b 9fbe 1f24 c4bf ed91 113f
00000120: 3b3a 893e 8a1b 81bf edea 5a40 8e4e a93f
00000130: 71cb fdbf c70f 863f 200a 953f 33b4 a4bf
00000140: cf33 543f a1e3 bfbd 3beb e13f 7aaf 4140
00000150: cf8a 3fbe 7c73 02bf 0331 d53f 8844 21bf
00000160: dc64 e0bf 9071 723e f468 a83f 7ee4 bf3f
00000170: a36b 45bf 13c0 97bf 20ff d13f e431 dd3e
00000180: 3b39 d13f 5f94 c3bf 2728 4e3e 61f9 88bf
00000190: d168 76bf 6076 87bf 9c92 87bf 6b6f 41c0
000001a0: b473 e6bf 3b60 f7be 9376 b83e 765c c03f
000001b0: 2466 8abf ddeb 88bf c99d ab3e 5ec2 c13f
000001c0: 1853 933f 4dc1 1a3f 6a75 44bf 1a99 60bf
000001d0: 03b7 043e a383 12c0 b7eb b4bf 5ef6 07c0
000001e0: 472b a2bd 4298 1a3f 7ae0 063e c6fb cdbf
000001f0: 5505 e03f 24f5 213f 993a 3b3f 791b a7be

model.func.layer1_convnet.conv.linear_1.output_mask f4 [32]
1.0 1.0 1.0 1.0 1.0 1.0 1.0 1.0
1.0 1.0 1.0 1.0 1.0 1.0 1.0 1.0
1.0 1.0 1.0 1.0 1.0 1.0 1.0 1.0
1.0 1.0 1.0 1.0 1.0 1.0 1.0 1.0
00000000: 0000 803f 0000 803f 0000 803f 0000 803f
00000010: 0000 803f 0000 803f 0000 803f 0000 803f
00000020: 0000 803f 0000 803f 0000 803f 0000 803f
00000030: 0000 803f 0000 803f 0000 803f 0000 803f
00000040: 0000 803f 0000 803f 0000 803f 0000 803f
00000050: 0000 803f 0000 803f 0000 803f 0000 803f
00000060: 0000 803f 0000 803f 0000 803f 0000 803f
00000070: 0000 803f 0000 803f 0000 803f 0000 803f

model.func.layer1_convnet.conv.fc.layer0.weight f4 [8, 64]
0.20483452 0.3097334 -1.379812 2.2148554 -0.6209909 -0.624934 -0.5433097 -0.71184176
1.5955001 0.36786407 -2.064211 -2.6253972 0.374975 -0.96412396 1.2269088 -0.75699216
0.064979255 -0.3067577 -3.4235165 -0.92340255 1.8357373 0.19051307 0.19246992 0.3879155
1.2924594 -1.6469669 0.78205025 0.60423553 -2.9151983 0.61145884 -0.5491045 1.8486567
0.49210972 -1.5748066 0.39681488 0.4217002 1.2679442 -2.863486 1.8930786 2.8137264
0.8889745 1.6031702 -1.2416725 -2.7011213 -1.1894128 -0.016391002 -1.3690596 -0.66957664
-3.4129226 2.4829633 1.245866 -0.8558786 -0.77163076 -0.41357484 -0.7315444 1.5786206
2.2707675 2.7074142 -1.4902204 -0.33782598 -0.029606326 0.3715834 -1.207434 0.7186555
1.1910172 -1.917458 0.75162774 -0.9942195 -0.4476177 -0.038315967 0.09922248 0.84313726
0.3867154 -0.3919623 0.29364127 0.4248754 0.55302495 1.4666466 0.900851 1.2924584
0.62827444 1.7024777 1.6205713 -0.3039855 1.1706136 0.8568455 0.627783 -2.9235046
-3.5827274 -0.8387693 1.749919 -1.6062244 -0.12149827 -1.5856535 -0.09825868 -0.6410039
-0.7804087 -0.5533229 -2.6504245 -1.3974988 0.6833415 -0.4527078 1.2743496 1.5857614
-2.262091 0.6492361 -3.1958873 1.4681902 0.3908407 -1.053649 -0.622758 0.8747682
0.055365615 1.5595672 0.38835633 -0.56408113 0.29844305 0.8166814 -0.027710149 0.75555307
1.374013 -0.83243865 0.9570099 2.670415 -4.1804504 -0.5784639 -0.58664626 0.9378078
-0.47260928 -0.8497689 -1.3078148 1.4332464 1.0868421 0.94274247 0.21607135 -0.0785678
0.9013435 -1.4704279 -0.8638692 -0.28949466 1.6821187 -2.0181816 0.054574274 0.5315714
0.49339497 0.5176318 -1.2776726 0.5590018 -0.4788956 -2.701414 -1.1597552 0.5890083
1.120265 0.71318614 -1.1104048 -0.22139624 0.5529294 0.33915794 -0.43788505 -1.9939708
1.223737 0.62777084 1.283537 3.205531 -0.55202657 2.2126932 0.024083441 -0.36829105
-0.8665872 -1.0115633 2.1592753 0.07920772 0.27954015 -0.18038715 0.22859871 1.3845313
0.07446467 -0.8620336 0.27986953 0.045233596 0.53064996 -1.4242356 -1.5578809 -0.29757285
-1.0889295 -0.87892306 0.9397138 0.068514824 1.2065312 2.6343925 0.77066815 -1.8343374
-1.1601435 -0.5256993 0.10250566 -0.052433573 0.5530885 0.5821144 -1.8729573 0.7188595
-0.15384547 -0.92030656 0.31836644 0.21441907 -1.1088914 -0.6164517 -0.6008962 -0.21031493
0.8517943 0.2047191 0.14591075 0.14035903 0.11065184 -1.0426841 0.9061083 0.8358053
-1.106999 -1.1381392 -1.0176109 -0.42946875 -0.92772585 -1.8387232 -2.1507678 -0.33029577
0.3875287 -0.59734786 0.4230152 0.16258296 -1.6187307 1.3664587 0.48805356 -0.10471461
2.1329117 -2.0100234 0.78356975 -0.92417836 2.4409268 -1.1796918 1.6837593 1.9687349
-0.53781813 -0.14471462 -0.15772314 -0.06545973 -1.395161 -1.3988731 0.036519576 0.14761637
-1.0931166 1.9954289 0.49893355 -1.7900276 -0.255175 1.0556942 -0.95076585 0.24753013
00000000: 24c0 513e 6095 9e3e ae9d b0bf 31c0 0d40
00000010: 42f9 1ebf adfb 1fbf 5816 0bbf 433b 36bf
00000020: 5939 cc3f ae58 bc3e 081c 04c0 8206 28c0
00000030: b9fc bf3e d4d0 76bf 590b 9d3f 3dca 41bf
00000040: d813 853d 580f 9dbe e51a 5bc0 1c64 6cbf
00000050: 71f9 ea3f dc15 433e d616 453e dc9c c63e
00000060: 4f6f a53f d0cf d2bf 7234 483f 2eaf 1a3f
00000070: 9c92 3ac0 9188 1c3f 1d92 0cbf c8a0 ec3f
00000080: cef5 fb3e 4393 c9bf 522b cb3e 17e9 d73e
00000090: ff4b a23f 5b43 37c0 6650 f23f 1814 3440
000000a0: d593 633f ae34 cd3f 20ef 9ebf 2cdf 2cc0
000000b0: ae3e 98bf 6c46 86bc 583d afbf 6069 2bbf
000000c0: 536d 5ac0 dfe8 1e40 8978 9f3f dc1a 5bbf
000000d0: 9889 45bf 15c0 d3be 7e46 3bbf 3d10 ca3f
000000e0: 4154 1140 4646 2d40 8bbf bebf 87f7 acbe
000000f0: f788 f2bc 2e40 be3e 338d 9abf cff9 373f
00000100: 4073 983f 446f f5bf ad6a 403f 2b85 7ebf
00000110: 262e e5be 34f1 1cbd 2835 cb3d d8d7 573f
00000120: 90ff c53e 48af c8be 2658 963e 4589 d93e
00000130: 0b93 0d3f 13bb bb3f 2c9e 663f 476f a53f
00000140: 98d6 203f caea d93f e16e cf3f fda3 9bbe
00000150: abd6 953f 3a5a 5b3f 63b6 203f b31a 3bc0
00000160: 684b 65c0 96b9 56bf 59fd df3f c398 cdbf
00000170: 16d4 f8bd b2f6 cabf d93b c9bd d518 24bf
00000180: ddc8 47bf 92a6 0dbf 8ea0 29c0 3ee1 b2bf
00000190: 78ef 2e3f 51c9 e7be e31d a33f 3bfa ca3f
000001a0: 19c6 10c0 5634 263f 6b89 4cc0 a8ed bb3f
000001b0: 461c c83e f8dd 86bf 116d 1fbf cff0 5f3f
000001c0: 0ec7 623d e69f c73f a4d6 c63e 9f67 10bf
000001d0: 87cd 983e 0812 513f 6500 e3bc ed6b 413f
000001e0: a8df af3f b31a 55bf 9afe 743f 14e8 2a40
000001f0: 40c6 85c0 3616 14bf 732e 16bf 2c14 703f
00000200: d8f9 f1be 748a 59bf 7a66 a7bf 9e74 b73f
00000210: a41d 8b3f 9257 713f cf41 5d3e 28e8 a0bd
00000220: 73be 663f fb36 bcbf 8826 5dbf a538 94be
00000230: aa4f d73f e329 01c0 4689 5f3d 1015 083f
00000240: 449e fc3e 8583 043f c78a a3bf be1a 0f3f
00000250: ce31 f5be f8e3 2cc0 dc72 94bf 3fc9 163f
00000260: d864 8f3f 5e93 363f bf21 8ebf b2b5 62be
00000270: c88c 0d3f 1ca6 ad3e 7832 e0be 6f3a ffbf
00000280: 6aa3 9c3f 97b5 203f f14a a43f 6b27 4d40
00000290: 9d51 0dbf c49c 0d40 a34a c53c a590 bcbe
000002a0: a9d8 5dbf e87a 81bf 9131 0a40 a837 a23d
000002b0: e31f 8f3e 69b7 38be c815 6a3e 5238 b13f
000002c0: ef80 983d 3cae 5cbf 0f4b 8f3e dd46 393d
000002d0: add8 073f 5a4d b6bf a468 c7bf 785b 98be
000002e0: 0b62 8bbf 1a01 61bf 1591 703f 8051 8c3d
000002f0: 9d6f 9a3f e399 2840 824a 453f 91cb eabf
00000300: 957f 94bf 3b94 06bf 7dee d13d 96c4 56bd
00000310: 3597 0d3f 7305 153f 11bd efbf 2d07 383f
00000320: ab89 1dbe 3699 6bbf ed00 a33e ac90 5b3e
00000330: 27f0 8dbf c7cf 1dbf 55d4 19bf cc5c 57be
00000340: 310f 5a3f e2a1 513e a169 153e 47ba 0f3e
00000350: 6f9d e23d ac76 85bf b7f6 673f 56f7 553f
00000360: 25b2 8dbf 8cae 91bf 1341 82bf 54e3 dbbe
00000370: 717f 6dbf 485b ebbf 2ea6 09c0 871c a9be
00000380: 296a c63e caeb 18bf 7395 d83e 267c 263e
00000390: 9132 cfbf 1ee8 ae3f 28e2 f93e 9d74 d6bd
000003a0: a081 0840 39a4 00c0 0798 483f f496 6cbf
000003b0: 2538 1c40 2400 97bf 6d85 d73f 81ff fb3f
000003c0: 73ae 09bf 1230 14be 2d82 21be c00f 86bd
000003d0: a394 b2bf 460e b3bf 8d95 153d bf28 173e
000003e0: 3feb 8bbf 376a ff3f 3874 ff3e a01f e5bf
000003f0: 4ca6 82be fd20 873f 6465 73bf 8a78 7d3e

model.func.layer1_convnet.conv.fc.layer1.weight f4 [64, 64]
0.40215468 -0.060721487 -0.2512238 0.50059795 0.11741308 -0.19409785 -0.32949167 1.3450191
-0.2822257 -0.9650116 0.63757074 -0.29635063 0.4913542 0.7771285 1.6701585 0.36352023
-0.5032445 0.15506352 1.0645956 -0.9592438 -0.64293516 0.20281827 -0.49388155 -1.9114388
0.554835 1.0523887 -0.6561755 1.3928453 0.33035028 1.2943637 0.14080249 0.8424807
-0.95170957 1.8650111 -0.68364877 1.7381479 1.5168169 0.21300817 1.0122609 1.7859964
-0.33465314 -0.733406 -0.5593164 1.3532912 0.34114417 -1.3891025 0.96323633 2.5087798
0.6136968 -2.2724886 -0.23973785 -0.8307029 1.9811976 0.5412113 0.4806371 -0.065707915
-1.1818542 -0.60902005 1.3766068 0.23029129 -0.71716046 1.0394874 -0.5131465 0.24023697
1.6686994 -0.76748073 -0.681795 -0.6047111 0.65380704 0.030368214 1.3057379 1.6335304
-1.007475 -0.1464597 -0.020036193 -2.0528727 -0.39366928 -1.4705983 0.27838337 -0.5534433
-0.17745401 1.0729947 -0.36100328 -0.39761877 2.4752839 0.55381745 0.6533721 0.63322145
-0.35863402 -0.52356356 -1.040862 -0.7204447 0.4521309 1.146725 -1.0494545 1.7484382
-0.32264212 1.2520946 0.30769312 0.3390026 0.7456223 0.6151984 -0.17216787 0.83079505
0.03590292 -0.8638562 0.44075516 -1.2468082 0.25181523 -1.4995908 0.46330824 0.15939048
-0.4841597 1.6571475 -0.51331407 1.5788679 -0.42217466 0.668612 -1.4846463 0.25309116
-0.22345112 -2.6536772 0.051679067 1.1422769 -0.91448605 -1.0676205 0.52757245 0.2790183
0.79630274 1.4693933 0.8372779 1.0494524 0.92970425 -1.1751088 0.06629527 0.38464096
0.56219965 1.782755 -1.4951411 0.18246911 -0.02765636 0.8717663 1.0009178 -2.0234458
-0.2106499 -0.70857996 -0.21286105 -0.6249613 -0.5188689 1.309828 0.31901363 -1.2437257
0.9686599 0.11859269 -0.22519201 -0.15223762 0.056424417 -0.60772383 1.0614622 -1.3527377
0.6163607 1.1560361 -0.72497225 -0.56282115 0.79977 1.0361235 0.6742823 0.62248474
1.6954781 0.22813015 -0.29409698 -1.0613781 1.0779705 -0.25853616 1.6058192 1.3876565
-0.7593943 -0.011216348 0.029951574 0.07326022 -0.29591846 -1.9496253 -0.7052413 -0.88335264
-1.2678126 -0.5060818 -0.783472 2.2015626 0.28075507 -0.93304044 0.023030814 0.9229408
-0.17490105 0.6551636 -0.347498 -1.2646552 0.07383909 0.7216168 1.8373289 -0.4368387
-2.5437813 -0.63078636 0.1490893 0.74430245 0.9322606 1.9862492 1.3242997 0.7095075
0.47340563 -0.32841846 -1.0659174 -0.011363106 -0.9392933 1.5211017 0.6988567 1.1693829
0.84113246 -0.333752 0.06808776 0.700443 0.09139767 0.94437057 0.16517402 0.38695166
-0.9318537 0.6947945 1.6495988 -0.24705048 -0.8462493 -0.15534206 -0.34266016 -1.4205678
-0.016374541 0.68150663 -1.1396844 1.080008 0.2772806 -1.2127237 0.48041204 -0.43698952
-0.70382917 1.2970893 0.20887068 -0.22868635 -0.84134203 -0.2961496 0.40121844 2.155406
0.36869213 -1.9851207 -0.24794732 0.90717983 -1.2587808 1.8747677 -0.7252155 0.73659027
00000000: 38e7 cd3e 18b7 78bd 68a0 80be 3027 003f
00000010: 4576 f03d 96c1 46be 22b3 a8be 9629 ac3f
00000020: e37f 90be 000b 77bf d637 233f 45bb 97be
00000030: c792 fb3e e5f1 463f c1c7 d53f 531f ba3e
00000040: a2d4 00bf f9c8 1e3e ab44 883f 0091 75bf
00000050: 6697 24bf 98af 4f3e 0bde fcbe 07aa f4bf
00000060: ab09 0e3f acb4 863f 1efb 27bf c148 b23f
00000070: ac23 a93e b6ad a53f 872e 103e d1ac 573f
00000080: 3da3 73bf afb8 ee3f 9b03 2fbf a17b de3f
00000090: 0e27 c23f d01e 5a3e c491 813f 889b e43f
000000a0: a857 abbe 7fc0 3bbf 5c2f 0fbf a538 ad3f
000000b0: 73aa ae3e 1cce b1bf a896 763f d98f 2040
000000c0: 3c1b 1d3f 7470 11c0 d77d 75be f2a8 54bf
000000d0: e297 fd3f d38c 0a3f 1116 f63e df91 86bd
000000e0: 0047 97bf bde8 1bbf a734 b03f 7bd1 6b3e
000000f0: d497 37bf ec0d 853f 925d 03bf ae00 763e
00000100: f197 d53f 9e79 44bf 1e8a 2ebf 59ce 1abf
00000110: e65f 273f c3c6 f83c 6b22 a73f 8617 d13f
00000120: f1f4 80bf 88f9 15be f122 a4bc 4462 03c0
00000130: 058f c9be 913c bcbf 4488 8e3e 76ae 0dbf
00000140: 81b6 35be e457 893f 6cd5 b8be b094 cbbe
00000150: 0d6b 1e40 fbc6 0d3f 6543 273f cd1a 223f
00000160: e19e b7be 4308 06bf f73a 85bf 106f 38bf
00000170: b47d e73e e3c7 923f 8654 86bf d3cc df3f
00000180: 5931 a5be a344 a03f f489 9d3e c091 ad3e
00000190: 1ae1 3e3f a47d 1d3f c64c 30be fcae 543f
000001a0: f10e 133d ae25 5dbf a9aa e13e 6997 9fbf
000001b0: eded 803e 97f2 bfbf bd36 ed3e 4237 233e
000001c0: c8e3 f7be 691d d43f 8d68 03bf 5818 ca3f
000001d0: 4727 d8be 282a 2b3f e408 bebf 2a95 813e
000001e0: 5fd0 64be d9d5 29c0 6ead 533d 2136 923f
000001f0: c21b 6abf caa7 88bf fd0e 073f 7ddb 8e3e
00000200: 7fda 4b3f 1415 bc3f d857 563f 7554 863f
00000210: 1901 6e3f f769 96bf d1c5 873d a9ef c43e
00000220: 51ec 0f3f 5131 e43f c960 bfbf 2fd9 3a3e
00000230: 978f e2bc 142c 5f3f 131e 803f 2380 01c0
00000240: 9bb4 57be 7f65 35bf 3ff8 59be 77fd 1fbf
00000250: 98d4 04bf 72a8 a73f c155 a33e 6732 9fbf
00000260: 18fa 773f b9e0 f23d bc98 66be 2ee4 1bbe
00000270: 4a1d 673d ca93 1bbf fedd 873f 8226 adbf
00000280: d1c9 1d3f fef8 933f c897 39bf 0c15 10bf
00000290: babd 4c3f b29f 843f c49d 2c3f 295b 1f3f
000002a0: 6d05 d93f f39a 693e e193 96be 3ddb 87bf
000002b0: f0fa 893f da5e 84be 7c8b cd3f ba9e b13f
000002c0: aa67 42bf c6c4 37bc 015d f53c 7409 963d
000002d0: a082 97be 528d f9bf b28a 34bf 6623 62bf
000002e0: af47 a2bf 948e 01bf 9f91 48bf 67e6 0c40
000002f0: 21bf 8f3e bddb 6ebf 1eab bc3c d945 6c3f
00000300: 4319 33be cdb8 273f 42eb b1be 39e0 a1bf
00000310: f338 973d e1bb 383f 982d eb3f 52a9 dfbe
00000320: 50cd 22c0 377b 21bf deaa 183e 9b8a 3e3f
00000330: a1a8 6e3f 6a3d fe3f a782 a93f 49a2 353f
00000340: 3962 f23e 7726 a8be fb6f 88bf 522c 3abc
00000350: 8775 70bf 76b3 c23f 46e8 323f 57ae 953f
00000360: 7554 573f 8be1 aabe 9871 8b3d 3c50 333f
00000370: b42e bb3d 45c2 713f 6123 293e 871e c63e
00000380: f78d 6ebf 0dde 313f 0e26 d33f cdfa 7cbe
00000390: cba3 58bf fd11 1fbe 2771 afbe 2ad5 b5bf
000003a0: e723 86bc 3877 2e3f 2ee1 91bf b43d 8a3f
000003b0: b9f7 8d3e 883a 9bbf 91f8 f53e 17bd dfbe
000003c0: 262e 34bf 0607 a63f 32e2 553e c12c 6abe
000003d0: 3162 57bf eca0 97be 816c cd3e 2cf2 0940
000003e0: 37c5 bc3e 6f18 febf e7e5 7dbe f03c 683f
000003f0: bb1f a1bf 63f8 ef3f b9a7 39bf 2e91 3c3f
