training/results/iteration_1/last_model.pth (torch, 79198 bytes, 31 tensors)

model.func.radial_basis.basis.bessel_weights f4 [8]
00000000: 0e52 de3f e559 a140 31a9 0f41 af73 4741
00000010: af0c 7f41 f090 9441 4fd2 b241 5d6e cb41
1.7368791 5.0422235 8.9788065 12.465743 15.940597 18.57077 22.35269 25.428888

model.func.chemical_embedding.linear.weight f4 [24]
00000000: 7276 0c3f f5ce cd3e e305 9b3e 49bb fd3b
00000010: 7629 4cbd 5962 ce3f 66c1 72bf 4fde 1dbf
00000020: 202b f13c c77d 91be 2613 3f3f bc34 06c0
00000030: 834e 0040 d2c8 40be ebc9 ac3f 5ec2 bbbf
00000040: c28a 1cbf a4f6 bebf f585 7abf c584 523f
00000050: e08c 203d bb04 383d b4b3 1540 9e23 83be
0.54868233 0.40196958 0.3027793 0.0077432734 -0.049844228 1.6123763 -0.9482635 -0.6166734
0.029439509 -0.28416273 0.74638593 -2.0969687 2.004792 -0.18826607 1.349912 -1.4668691
-0.6114923 -1.4919019 -0.9786065 0.8223384 0.03919685 0.044926386 2.3390932 -0.2561311

model.func.chemical_embedding.linear.output_mask f4 [8]
00000000: 0000 803f 0000 803f 0000 803f 0000 803f
00000010: 0000 803f 0000 803f 0000 803f 0000 803f
1.0 1.0 1.0 1.0 1.0 1.0 1.0 1.0

model.func.layer0_convnet.equivariant_nonlin.mul.output_mask f4 [24]
00000000: 0000 803f 0000 803f 0000 803f 0000 803f
00000010: 0000 803f 0000 803f 0000 803f 0000 803f
00000020: 0000 803f 0000 803f 0000 803f 0000 803f
00000030: 0000 803f 0000 803f 0000 803f 0000 803f
00000040: 0000 803f 0000 803f 0000 803f 0000 803f
00000050: 0000 803f 0000 803f 0000 803f 0000 803f
1.0 1.0 1.0 1.0 1.0 1.0 1.0 1.0
1.0 1.0 1.0 1.0 1.0 1.0 1.0 1.0
1.0 1.0 1.0 1.0 1.0 1.0 1.0 1.0

model.func.layer0_convnet.conv.linear_1.weight f4 [64]
00000000: 2393 963e 6351 64be bbbc 09bf 80a5 05c0
00000010: f0e9 19bf dd77 c9be d1b9 b83e ffae 503f
00000020: 55db 12bf 4e9e 7dbf 1709 aabf 877f c1bf
00000030: 57c1 14bf ff94 8abf 33f5 5d3f 57d9 58be
00000040: 40b4 17bf 7726 1cc0 d9ed aabf f5ab 82be
00000050: e4c4 d33f 3790 093d 441a 783f 4656 3d3e
00000060: c307 9f3f 8fd9 d33d 6858 a23f cc29 2cbe
00000070: 5795 4fbe bf0b 0fc0 c8d6 33bf 395c 45bf
00000080: 8b94 0fbe c041 f8bd 0062 94bf c87d 75bf
00000090: 263b 173f 2838 5f3e 7595 a63e b08d 0740
000000a0: d34d 36bf b4fc 09bf c828 b03e ca39 6ebf
000000b0: b4ae a83f a9e9 afbd bba5 4b40 083f 1dbf
000000c0: f6d2 fd3f 2b8f 973f 72f4 273f db1c c7bf
000000d0: 3296 903f c3a2 d13f 8b6a b4bf 0f8a 413f
000000e0: 805f 563e 029e 81bf 5725 9fbe 6ea1 e23f
000000f0: b1f8 a9bf 6ed3 653f d669 35bf a828 183f
0.2940913 -0.22296672 -0.53803605 -2.0882263 -0.60122585 -0.3934926 0.36079267 0.8151702
-0.57365924 -0.9906968 -1.3284024 -1.5117043 -0.58107513 -1.082672 0.8670227 -0.21176659
-0.59259415 -2.4398477 -1.3353835 -0.25521818 1.6544461 0.0335848 0.9691508 0.18489942
1.2424244 0.103442304 1.268323 -0.16812819 -0.20271812 -2.235092 -0.70249605 -0.77093846
-0.14021508 -0.12121916 -1.1592407 -0.9589505 0.5907463 0.21798766 0.32535902 2.118023
-0.712125 -0.5390122 0.34406114 -0.9305693 1.3178315 -0.08589489 3.1819904 -0.61424303
1.9830005 1.1840566 0.6560737 -1.5555681 1.1295836 1.6377796 -1.4095014 0.75601286
0.20934868 -1.0126345 -0.31083176 1.7705514 -1.327902 0.8977574 -0.7086462 0.59437037

model.func.layer0_convnet.conv.linear_1.output_mask f4 [8]
00000000: 0000 803f 0000 803f 0000 803f 0000 803f
00000010: 0000 803f 0000 803f 0000 803f 0000 803f
1.0 1.0 1.0 1.0 1.0 1.0 1.0 1.0

model.func.layer0_convnet.conv.fc.layer0.weight f4 [8, 64]
00000000: b38e f8bf 5f75 d2be 4d1f 1fc0 1922 7ac0
00000010: 58c8 4140 7125 dfbf f787 debf d620 293f
00000020: 1d54 8bbf 8e8c 343e 6956 ac3f aece aabe
00000030: 2abe 0540 6aea 5ebf 62ce 2bc0 ee08 8dbf
00000040: 7ac2 b3bb c0a1 733f ae33 3cc0 19d0 c4bf
00000050: 815a 81c0 019a e63e d910 b9bf 36d7 de3f
00000060: 7daf b1bf d0e5 cfbf f3ae a740 3dca 9abe
00000070: f3de 5d3f e71f a23f 108a c73f 9d3e 3640
00000080: fa6e 3bc0 652a a63f 69f3 dd3f cbbd efbe
00000090: 3abb c53f e2d8 563f 3347 613f a29f d2bf
000000a0: 72cc 0cc0 72dd c83f 882c ef3f 6624 f8bd
000000b0: 362d c63b df64 8f3f 2d51 1340 0706 6340
000000c0: d719 05c0 0281 4a40 73c1 b73f 0fd4 3140
000000d0: 6611 49bf ea02 0840 a5fb 9cbf fdb0 0940
000000e0: 6b39 dbbf 2491 00c0 d072 ac3f 2454 10c0
000000f0: 7638 033f c0e5 47bf 3d6c b53d ab76 bfbf
00000100: 0af5 0840 85ee 37bd f308 0b40 2d5d fe3e
00000110: adf5 94bf 4b21 3bbf ed9a 883f d620 3cbe
00000120: 69b7 b6bd b81b 2340 5ce1 6fbf e965 afbe
00000130: 1a10 ccbe dc2d 85be d66a 0c3e 49ce 9b3f
00000140: e16b e0bd 5a43 b43f a33b 813f c9ca 1b3f
00000150: 9db0 e93b b089 63bf 8a91 cbbe d141 47bf
00000160: c5d1 9b3d bae1 59be 5fae 5e3d cd3d 0d40
00000170: 24d3 6dc0 38b2 533d 7e4d 99bf b9cb 3fbf
00000180: 37b4 8a3d 42a6 183d 782d 51bf 73a9 98bf
00000190: 37c7 973d e8f4 89be 0115 9c3c cf38 ccbf
000001a0: 85c3 c03f e6b8 dbbf 851c 6e3f 20a7 eb3e
000001b0: af70 103f 38bc ab3f f2c5 dcbf 7e57 333f
000001c0: 6acd b53f 39fc b03d 9bf5 c8be 60dc 2c3f
000001d0: 6c09 9a3f 2c69 c5bf bc29 53be 5731 94be
000001e0: 719e 80bf cdec 2a3f 6cb4 fd3f bc0e 523f
000001f0: 9bf9 80bf 13cd 603f b080 53be c403 083f
00000200: 960e 393f ada3 98bf b0c8 783f d613 bebe
00000210: a8a2 a23e 49e8 463f 352b 033f 39e7 7abe
00000220: 5e3b c4be 4790 183f 791f 443f c0b8 b4bd
00000230: 83fc e4bf a92f a13e ffc2 2c3f a8f3 f53f
00000240: 0f58 11c0 3117 a63f 2320 2b40 c809 b23e
00000250: 17a8 033f bcae 71be 701d 9f3e 54b5 c43f
00000260: 4173 e8bf ff92 cc3f 3385 a3bf 23a1 88bf
00000270: b8d5 4240 6a52 9c3e b34c d43f 9da4 43bf
00000280: 26e8 43bf 1c59 03c0 55e0 8ebf 24f6 7a3f
00000290: 2d67 a5bf 6f25 e03d 40de 953e 63b1 0340
000002a0: 86ee 9dbf 8741 e53f 4bec ad3f e3e2 053d
000002b0: 2e3d c83f 2a1e cb3f 7890 b03f 6ca1 c1bd
000002c0: dc0b ae3f 08ba 3d3e edf5 6640 b7d7 1cbf
000002d0: 3a29 f13e 9156 dabf deff 7abf 4e22 36bf
000002e0: d09e 0640 3901 40bd bb8e 0bc0 9cc4 363f
000002f0: 6c4d 40bf 5dc9 933f 1f29 423f b83f e4bd
00000300: 66ef 073e bba9 a7bf cd73 0ec0 ae1a 8a3f
00000310: a214 4ebf 9eaf c93e 6546 2dc0 7819 cabd
00000320: 95cb 523f 7afa d0bf 6341 4f3e f962 f23e
00000330: b355 f23f 070f 01c0 7e0e b3be e233 f6bf
00000340: f62f bc3e 8a56 a2bf bcc0 473f 44b9 c23e
00000350: 223b 343f 7325 b03f ac6e ac3e b016 a6bf
00000360: 531b 693f 269f 2540 27c9 15bf a9be 8bbf
00000370: 8ee5 94bf fe66 adbe 5440 b2bf 6828 26bf
00000380: 0fc2 c23e 653b ba3e 26d9 5b3f 7247 93be
00000390: b805 8fbf 224f 603f 9bc6 55bf 280f c43f
000003a0: 62f0 143f a9b3 463f a773 1ebf 6603 e0be
000003b0: fef1 3abc ad54 3ec0 0b6b 3a3f fc13 273e
000003c0: e2b2 de3e e2f7 f1be de45 e8bf b0a8 563f
000003d0: 879f a93e a97c 763f 040c 10c0 76f3 adbf
000003e0: 38a3 46be 4f71 0c40 4640 4dbd 481f 6ebf
000003f0: c8c4 0a40 8f47 c2bf 1d86 65bf 1d0e 913e
-1.9418548 -0.41105172 -2.4862854 -3.9083312 3.027853 -1.7433301 -1.7385243 0.6606573
-1.0885044 0.17631742 1.346387 -0.3336081 2.0897317 -0.8707644 -2.6844716 -1.101835
-0.00548583 0.95168686 -2.9406543 -1.5376006 -4.042298 0.4503937 -1.4458266 1.7409427
-1.388168 -1.6242008 5.240106 -0.3023242 0.8666832 1.2665986 1.5589008 2.8475716
-2.9286485 1.2981688 1.7339908 -0.46824488 1.5447762 0.83924687 0.87999266 -1.6454966
-2.1999784 1.569258 1.8685465 -0.121163175 0.00604787 1.1202658 2.3018296 3.5472429
-2.0797021 3.164124 1.4355911 2.778568 -0.7854217 2.1251779 -1.2264296 2.1514275
-1.7126898 -2.0088587 1.3472538 -2.2551355 0.5125803 -0.78084946 0.088585354 -1.495809
2.139956 -0.044905204 2.1724212 0.49680462 -1.1637474 -0.73097676 1.067228 -0.18371901
-0.089217015 2.5485668 -0.93703246 -0.3425744 -0.39856035 -0.2601155 0.1371263 1.2172328
-0.10958076 1.4083054 1.0096325 0.608563 0.0071316496 -0.8888197 -0.39759475 -0.778348
0.0760837 -0.21277514 0.054365512 2.206897 -3.716012 0.051683635 -1.1976774 -0.7492023
0.067726545 0.03726793 -0.81710005 -1.1926712 0.07411044 -0.2694466 0.019052984 -1.5954837
1.5059668 -1.7165802 0.9301227 0.46025944 0.5642194 1.3416815 -1.7247908 0.7005538
1.4203312 0.08641858 -0.39249882 0.67523766 1.2034125 -1.5422721 -0.20621389 -0.28943893
-1.0048352 0.6676758 1.9820685 0.8205373 -1.0076174 0.8781292 -0.20654559 0.53130746
0.7228788 -1.192495 0.97181225 -0.3712451 0.31764722 0.7769819 0.51237804 -0.24502267
-0.38326544 0.5959515 0.76610523 -0.08824301 -1.788956 0.31481674 0.6748504 1.9214983
-2.2709997 1.2975827 2.6738365 0.34773088 0.5142836 -0.23601812 0.31077147 1.5367837
-1.8160173 1.598236 -1.2775024 -1.0674175 3.0442944 0.30531627 1.6585907 -0.76423055
-0.76526105 -2.0523138 -1.1162211 0.9803183 -1.2922112 0.1094464 0.29271126 2.0577018
-1.2338417 1.7910622 1.3587736 0.03268708 1.564367 1.586858 1.3794088 -0.09454617
1.3597369 0.18527997 3.60876 -0.61266655 0.47101766 -1.7057668 -0.9804667 -0.71146095
2.1034431 -0.046876166 -2.1805866 0.7139375 -0.75118136 1.1545826 0.75843996 -0.11144966
0.13274917 -1.3098673 -2.225818 1.0789392 -0.80500233 0.39391798 -2.7074215 -0.09868139
0.8234189 -1.6326439 0.20239787 0.47341135 1.8932403 -2.0165422 -0.34971994 -1.9234583
0.3675534 -1.268266 0.78028464 0.3803197 0.7040273 1.3761429 0.33678186 -1.2975674
0.9105732 2.5878386 -0.5851006 -1.091756 -1.1632555 -0.3386764 -1.3925881 -0.64905405
0.3803868 0.3637344 0.8587822 -0.28765446 -1.117362 0.8762075 -0.8350617 1.5317125
0.58179295 0.7761789 -0.6189522 -0.43752593 -0.0114102345 -2.9739182 0.72819585 0.16316217
0.43495852 -0.47259432 -1.8146322 0.83851147 0.33129522 0.96283966 -2.2507334 -1.3589923
-0.193982 2.1944158 -0.050110124 -0.9301648 2.1682606 -1.5178088 -0.89657766 0.2833108

model.func.layer0_convnet.conv.fc.layer1.weight f4 [64, 64]
00000000: 356b d3be 1ae6 233f 0a45 aa3e dcf7 a0bf
00000010: 8e87 133f 9ef3 7a3c d728 38bf cc0c 1a3f
00000020: 7964 a43f 6dcd f3bf a6f1 be3f c01a 5c3f
00000030: 5219 93bd 83ae fcbd ba75 04bf 1943 fbbe
00000040: 5407 293f ec25 61bd bfac ae3f 7b7f 0abf
00000050: aefb 58bf 0e83 11bf 8b60 5f3f 61ae 4d3f
00000060: 6360 18bf 31bb b6be b933 663f 8113 e1be
00000070: 5ccc 543e 6e60 a0bf b628 20bf a92b 4c3f
00000080: 1b01 553f 5b20 0fbf d644 37bf aa7b c73f
00000090: 4f56 39bf b9e4 9abf 4214 7abf ac66 d7bf
000000a0: d53b 2abf 7b0b fd3f 2e80 9cbe a5fb 143f
000000b0: 56e8 103f ba74 c03d 7bb9 873e 22ac adbf
000000c0: bb28 b93e af5f cebf 3366 a63e 0af9 8c3e
000000d0: eac4 17c0 44c3 c43f 3556 593f 8242 d4be
000000e0: 2adf 81bf c716 bf3e 649a c73f 698d 82bf
000000f0: 7a4a 17be bda5 13be f984 d33e 7898 88bf
00000100: a6f9 943e 6db3 abbf c02c 21be 2235 69be
00000110: d8fd 8f3e cc1d 12be 1d5f b4be b30a b6bf
00000120: 8b37 b13e 0154 8fbe 064e 9bbf 6999 ee3f
00000130: d7d8 ca3e 2feb d53e 2df8 66bf ccf2 e83e
00000140: 5a33 7e3f 40ed 663f 3d3a edbc 50e8 223e
00000150: 15a2 bd3f 89ff 23bd b856 ee3f 6d82 95bf
00000160: e8d0 c93f 861e c6be 45cf 90bf 54ab 0840
00000170: 9a9f 513e 197b b6bd d5ce 383e 4451 fcbe
00000180: b649 26bf 47e7 a93f f0aa cb3f 293e c5bf
00000190: aa1c 8bbe c0fa 9cbf 86f4 bb3e 677f 2fbf
000001a0: b2a5 88bd b612 3bbf f1cd a6bd 1cba 353f
000001b0: 85f0 333f dc51 2fbe 4c73 093f 21ba 9c3f
000001c0: 572f 413f b345 b8be e8b1 93bf 8706 89bf
000001d0: 5c73 bebf 6681 243e 2ba4 8fbf 77d1 413f
000001e0: 98e0 0c3e 34f0 293e 1507 3ac0 1e46 76bf
000001f0: 85b5 223c 7575 0b3d fabb 88bf c1e8 cd3e
00000200: 54a2 243f a508 8ebf d09f 5ebd 7a72 c0bf
00000210: 0140 0bbe 0a7a 85bf b37a e5be 0d35 ea3f
00000220: aa9d 0b3f 3307 d2bf f39b b83e c59b 5e3e
00000230: c612 8a3e 1f1d 603f 35c8 94bf 167e adbf
00000240: 1a59 26be da3d 35be 99be 03be 92c9 ce3e
00000250: e7b2 80bf 7e92 adbf e38d 2e40 add7 18bf
00000260: b151 8dbd 8ba8 1a40 b915 723e d8e5 05be
00000270: 102c 393e 3e3b 0940 7394 3540 d1d2 d2be
00000280: 87b7 ca3e 4957 2540 892d ebbe de1f 1540
00000290: a3fc ec3d 2ea4 113f 0550 b6bd d04a 0040
000002a0: a8c4 08c0 e3c8 c73e 78e4 d4bf 0fb5 4740
000002b0: 2466 f73d f605 1a40 6f16 3740 2cf6 453e
000002c0: b052 c3bb c0b9 1d3e b6dc cfbf abb3 75bf
000002d0: d137 0540 5926 1b3f edc1 b0bf 77b7 77be
000002e0: 80b9 02c0 14dc 4a3f 61d9 60bf 9135 0140
000002f0: fcb3 b5bf 0b37 ccbf a3a8 f53e a20a f33e
00000300: 2947 efbe 3b09 73be 21ad 67bf 5adc cabf
00000310: 8e15 77be effc a1bd 20c0 613e fe32 2140
00000320: 4eff 83bf 7eaa 8ebf 2d56 e63f e5b3 10bf
00000330: cf06 1a3f 64e1 2240 0409 df3f 855d 9d3f
00000340: c836 ccbf a7fb e53e 4c90 4d3f b6c3 0f3f
00000350: 3944 a1bf 4483 48bf 4122 1e40 b89e a43f
00000360: f31a 84be 47bf ea3f 8a7e 9e3d 873b ce3e
00000370: bdf0 3d3f f6cc 83bf 0557 36bf e7c5 4bbe
00000380: 498e da3e ccbf d6bf f0d0 b2be 1598 7540
00000390: ee8b 7cbe e57d 03be 4eeb c5be f362 f93e
000003a0: f4f7 7bbf bde3 0740 e1d1 96bf 5e82 cc3e
000003b0: 3923 dfbe d4cb cdbf d4d3 cabf 326e 7abf
000003c0: 85b8 34c0 ea2c 783e ea75 e8bf 98c7 623f
000003d0: baa4 ac3f 7f59 9fbe 99d3 6a3e 51bb de3f
000003e0: dbb0 b93d 8dce f7bf 844b 9d3f c93f 3bc0
000003f0: 491d 073e cfa9 083f c13a 4e3f 2714 c3bf
-0.4129273 0.6402298 0.33255798 -1.2575641 0.57628715 0.015316872 -0.71937317 0.60175776
1.2843162 -1.9047066 1.4917495 0.8597832 -0.07182564 -0.12337973 -0.51742136 -0.4907463
0.66026807 -0.054967806 1.3646468 -0.5410077 -0.8475903 -0.568406 0.8725669 0.80344206
-0.59522074 -0.3568969 0.8992267 -0.43960193 0.20781082 -1.2529428 -0.6256212 0.7975412
0.8320481 -0.55908746 -0.7158941 1.5584614 -0.7239732 -1.2101051 -0.9768716 -1.6828208
-0.66497546 1.9769129 -0.30566543 0.5819648 0.56604517 0.09397264 0.26508698 -1.3568156
0.36163887 -1.612295 0.32499847 0.27533752 -2.3713937 1.537209 0.84897166 -0.4145699
-1.0146229 0.37322065 1.5593991 -1.0199405 -0.14774504 -0.14418693 0.41312388 -1.067153
0.29096717 -1.3414131 -0.15739727 -0.22774175 0.28123355 -0.14269179 -0.35228816 -1.4222015
0.34612688 -0.27993777 -1.2133186 1.8640567 0.3961856 0.41780993 -0.90222436 0.4549774
0.99297106 0.90205765 -0.028958434 0.15908933 1.4815089 -0.04003862 1.8620214 -1.1680428
1.5766878 -0.38695163 -1.1313254 2.135457 0.2047104 -0.08910198 0.1804765 -0.4928075
-0.64956224 1.3273705 1.5911541 -1.5409595 -0.27170306 -1.2264023 0.36709994 -0.68553776
-0.06672229 -0.73075426 -0.08144749 0.70987105 0.7028888 -0.1712107 0.53691554 1.2244302
0.7546286 -0.35990676 -1.1538668 -1.0705117 -1.4878955 0.16064987 -1.1221975 0.75710243
0.1375755 0.16595536 -2.9066823 -0.9620074 0.009930973 0.034047563 -1.0682366 0.4021664
0.64310193 -1.1096388 -0.054351628 -1.5034935 -0.13598634 -1.0427868 -0.44820175 1.829744
0.5453745 -1.6408447 0.3605648 0.21739109 0.26967448 0.87544435 -1.1623598 -1.3554103
-0.16244927 -0.17699376 -0.12865676 0.4038816 -1.0054597 -1.3560331 2.72741 -0.59704095
-0.06900347 2.416537 0.23641099 -0.1307596 0.18083215 2.1442409 2.8371856 -0.41176465
0.39593145 2.5834525 -0.45933178 2.33007 0.11571624 0.56891143 -0.08901981 2.0045662
-2.137003 0.39020452 -1.6632223 3.120426 0.12080029 2.4066138 2.8607442 0.19332188
-0.005960785 0.15402889 -1.6239231 -0.95977277 2.0815318 0.6060539 -1.3809181 -0.2419108
-2.042572 0.7924206 -0.87831694 2.0188944 -1.4195552 -1.5954298 0.47980222 0.4746905
-0.46733978 -0.2373399 -0.9049855 -1.5848496 -0.24129316 -0.079095714 0.22045946 2.5187373
-1.0312288 -1.114578 1.7995049 -0.565245 0.6016664 2.5450068 1.7424626 1.2294165
-1.5954218 0.44918558 0.80298305 0.56158006 -1.2598945 -0.78325295 2.4708407 1.2860937
-0.2580181 1.8339623 0.07738979 0.4027979 0.7419546 -1.0296924 -0.7122653 -0.19899713
0.4268668 -1.6777282 -0.34925032 3.8374074 -0.24662754 -0.12840994 -0.38656086 0.48708305
-0.9842522 2.123275 -1.17828 0.39943212 -0.4358156 -1.6077828 -1.5845895 -0.97824395
-2.8237622 0.24235883 -1.8160985 0.88585806 1.348777 -0.31122968 0.2293228 1.7400914
0.09066936 -1.9359909 1.228867 -2.9257681 0.13194765 0.5338411 0.805584 -1.5240525

model.func.layer0_convnet.conv.fc.layer2.weight f4 [64, 16]
00000000: aeef eebe cabd 093f 66ff dbbe 5c3d 1340
00000010: 74bb b2be 33c3 203f afa2 a1bf 9a07 3cbf
00000020: 4196 a2be 7fe5 d53f eb70 e2bf a271 d4bf
00000030: e9b3 343d 589b bc3f f150 663e 9cc1 3540
00000040: 1e9c b93f 9a0d 4bbf a21f 523f 70db 1a3e
00000050: 5f27 1140 5e1e 143f 08c5 c1be 4576 8dbf
00000060: 0941 0340 d2e3 5fbf 4797 1dbe e08d 9bbf
00000070: 2787 85be a4d2 be3f 3642 8fbd 7cbf 9f3f
00000080: 67aa c43f 8904 e7bf 2067 d03e 0667 aa3e
00000090: 1d19 423f b420 4c3d 283d a83e 8e77 20bf
000000a0: 283f 83bd 9cb4 993f 0e2f 86bf 2f8c bbbd
000000b0: 8676 e6be a894 4bbe 5809 8e3f a1c3 32be
000000c0: 4c1e c4bf caf2 19bf ceba 90bf 6ba3 f7bd
000000d0: 2081 4dbf fa17 213f 00a7 01bf bede 8dbf
000000e0: b630 0fbf cf19 af3e dcaa 59c0 26f8 b7be
000000f0: fedb 55bf f0da f6bf e1d4 603f f0cc 283f
00000100: 1549 f6be fba5 a33f 2670 82be af19 513e
00000110: 0190 2440 5337 7cbe 7397 7e3f 50ed d63f
00000120: d26f 643f 6899 15c0 8a69 b13f 4972 9b3f
00000130: 2f3b 3840 16f1 d5bf db23 7c3f aee2 9bbf
00000140: 9cd2 5bbf 054c 8c3e 54f7 b3bf e592 48bf
00000150: 1c10 cd3e 8382 d1bf 5aa5 293e fc07 b63f
00000160: 6b8e d83f f3a2 6c3e a573 4ebe f3d4 f5bd
00000170: 571e 49bf 3bc5 d3b9 df99 debf c79a c33d
00000180: 3b74 22be 4441 083e 884f 8abe a09c 783f
00000190: d042 b53e 2210 943f b38f 5c3e 5a01 fc3d
000001a0: d306 a13e 8e9b 9fbe 8cc6 2c3e d8d9 f0be
000001b0: d004 1740 e094 dd3f 12e7 fc3f 4ca8 cfbf
000001c0: da56 e2bf 2679 c5bd aa27 c33f 5a14 8bbf
000001d0: 282e b63f fda3 a53f 8986 28bf 5b1c a63f
000001e0: 37a1 34c0 3bd7 0a3f 1020 2440 65db 843d
000001f0: 863d 9a3f 4127 873f d5f3 f1bf f1b6 b93f
00000200: efc5 88be 6c0a ce3e f250 56bf 19fa 16bf
00000210: 59d9 0ebf afe7 6b3f e314 31bf 32a1 c0bf
00000220: 9079 29c0 ecac 9dbe 828b d63c dbdf d3bf
00000230: 6a9e fabe a615 60be 85d9 12c0 ddfb 3640
00000240: 858b e93e e394 a0bf 602c 15be 5be3 cb3f
00000250: 9594 1440 3f3e 633e a541 47bf 265b 463f
00000260: 2725 4b3f 49e8 2a40 a829 5dbf 8c55 553f
00000270: 1627 533f c4fb 32be b2a9 3b40 59f0 af3f
00000280: f03e a8bf 8008 3d3f bc69 d1bf 1088 ef3e
00000290: 7d71 90bf a405 5dbe 9f86 8cbf 2946 783e
000002a0: 0602 9dbf f738 9fbf 23da aa3f 0cdf b8bf
000002b0: c7e7 16bf 0290 093f 21ec fdbd 7e02 b03e
000002c0: 259c ce3f 252e a93f a8f1 713f f2ee 893f
000002d0: 1523 623f 8635 063e e8b8 fdbd 13dc 64bf
000002e0: 0495 7ebf 376d a83d 9381 f33d 6baa b5bf
000002f0: 530a 313f e424 483f 204d 453f df05 983e
00000300: 711e 63bd 022c 4fbf bf71 fe3c c9ab b0bd
00000310: b0fd 303f 56e2 c2bf 7ba8 2dbd 2bf9 d73e
00000320: 1f30 1dc0 4b5b b4bf 0409 7a3f 9239 a9bf
00000330: ff46 0dbe c5c3 2bbf 3406 4ac0 d54a 20be
00000340: b790 d7bd f5ec 9e3f bd88 73bf 7807 e4bf
00000350: 68b9 27bf 8355 98bd 8310 cf3d f2c2 fd3e
00000360: 6258 d8bf 5afe ddbf 8b79 c43e c7ef 7abf
00000370: 1715 103f abc9 443e d625 09c0 5def 0b3f
00000380: 7005 3c3f dd3a 463f 69c5 4f3f ca01 27bf
00000390: ca02 8f3e 20da 193e ffc5 063e faf8 c6bd
000003a0: 9b68 9c3f dd07 0140 a60e c93d 997c 3d3f
000003b0: 5d94 4dbd 8ba0 87bf b9ee 36bf 39cc 503f
000003c0: f44e 81be ca37 493f cdfe 92bf 2547 b83e
000003d0: b4c1 babe 16c0 2cbd a420 90bf bab8 393f
000003e0: f3a2 06c0 7c8b 47be 92ab fabc 6512 b73e
000003f0: 253e 803e 8835 c7bf 8aaf 5f3f 79fe c03d
-0.46667236 0.5380522 -0.4296829 2.30062 -0.3490864 0.6279785 -1.2627772 -0.734491
-0.3175526 1.6710662 -1.769071 -1.6597178 0.04411689 1.4734907 0.22491814 2.839942
1.4500768 -0.7931763 0.8207952 0.15122771 2.268028 0.57858837 -0.37845635 -1.1051718
2.0508444 -0.87457 -0.15389739 -1.2152672 -0.26079676 1.4908032 -0.069950506 1.2480311
1.5364503 -1.8048259 0.40703678 0.33281726 0.7581957 0.049835876 0.3285916 -0.62682426
-0.064085305 1.2008243 -1.048311 -0.09157597 -0.450123 -0.19880927 1.1096601 -0.17457439
-1.5321746 -0.6013609 -1.1307008 -0.120917164 -0.80275154 0.6292721 -0.50645447 -1.10836
-0.559337 0.34199378 -3.4010534 -0.3593151 -0.83538806 -1.9285564 0.8782483 0.6593771
-0.48102632 1.2785028 -0.25476187 0.20419954 2.5712893 -0.2463048 0.99449843 1.6791172
0.89233124 -2.3374882 1.3860333 1.2144252 2.8786123 -1.6714199 0.9849221 -1.2178552
-0.8586824 0.27401748 -1.4059854 -0.78349143 0.40051353 -1.6367954 0.16566983 1.4221187
1.6918463 0.23109035 -0.20161302 -0.120035075 -0.7856192 -0.00040392004 -1.7390708 0.09551006
-0.15864651 0.13306147 -0.27013803 0.9711399 0.35402536 1.1567423 0.21539192 0.12304945
0.3145052 -0.31173366 0.16872615 -0.47041202 2.3596687 1.7311058 1.9758017 -1.6223235
-1.7682755 -0.09642248 1.524648 -1.0865586 1.4232836 1.294067 -0.65830284 1.2977403
-2.8223398 0.54234666 2.564457 0.06487159 1.2050025 1.0558854 -1.8902537 1.4508954
-0.2671351 0.40242326 -0.8371726 -0.5897537 -0.55800396 0.92150396 -0.69172496 -1.5049193
-2.6480446 -0.3079599 0.02618957 -1.655269 -0.48948985 -0.21883258 -2.2945263 2.8591225
0.45614257 -1.2545437 -0.14567709 1.5928758 2.3215687 0.22191714 -0.7783454 0.7748283
0.79353565 2.6704276 -0.8639169 0.8333366 0.82481515 -0.17478853 2.9322324 1.3745223
-1.3144207 0.73841095 -1.6360393 0.46783495 -1.1284634 -0.21584183 -1.0978583 0.24245514
-1.2266243 -1.2439259 1.334782 -1.4443069 -0.58947414 0.53735363 -0.12398554 0.343769
1.6141402 1.3217207 0.94509363 1.0776045 0.8833478 0.13106355 -0.12388784 -0.89398307
-0.9944613 0.08223956 0.11889949 -1.4192632 0.6915638 0.7818129 0.7707081 0.2969198
-0.055448953 -0.80926526 0.031060098 -0.086265154 0.69137096 -1.5225322 -0.042397004 0.42182288
-2.456062 -1.409036 0.97670007 -1.3220694 -0.13796614 -0.67095596 -3.1566286 -0.15653546
-0.10525649 1.2416064 -0.9513052 -1.7814779 -0.6551728 -0.07438185 0.10110571 0.49562794
-1.6901972 -1.7343247 0.3837398 -0.9802212 0.5628218 0.19217555 -2.1429343 0.54662114
0.73445797 0.7743357 0.811606 -0.65237105 0.27931815 0.15024614 0.13161467 -0.09715457
1.2219423 2.016105 0.09817247 0.74018246 -0.05019032 -1.0595869 -0.7145801 0.8156162
-0.2525555 0.7860075 -1.1484009 0.3599178 -0.3647591 -0.042175375 -1.1259961 0.72547495
-2.1036956 -0.19486803 -0.03059939 0.3575622 0.25047413 -1.5563211 0.87377226 0.09423537

model.func.layer0_convnet.conv.tp.output_mask f4 [32]
00000000: 0000 803f 0000 803f 0000 803f 0000 803f
00000010: 0000 803f 0000 803f 0000 803f 0000 803f
00000020: 0000 803f 0000 803f 0000 803f 0000 803f
00000030: 0000 803f 0000 803f 0000 803f 0000 803f
00000040: 0000 803f 0000 803f 0000 803f 0000 803f
00000050: 0000 803f 0000 803f 0000 803f 0000 803f
00000060: 0000 803f 0000 803f 0000 803f 0000 803f
00000070: 0000 803f 0000 803f 0000 803f 0000 803f
1.0 1.0 1.0 1.0 1.0 1.0 1.0 1.0
1.0 1.0 1.0 1.0 1.0 1.0 1.0 1.0
1.0 1.0 1.0 1.0 1.0 1.0 1.0 1.0
1.0 1.0 1.0 1.0 1.0 1.0 1.0 1.0

model.func.layer0_convnet.conv.linear_2.weight f4 [192]
00000000: 7162 3d3e 5f9a ecbf aa85 aa3f 4fd3 cc3e
00000010: ce9e 2fbf e316 84bf 72e5 88bf a3c2 a13f
00000020: f6eb 96bf ac45 49bf 7099 0bbf aa0f a4bf
00000030: e9fe a93f bc44 fd3e 4798 863d e561 94bf
00000040: 1946 3abf 4bba c5bf a88d 6cbf f83a 0bbe
00000050: 1abd bc3f b5f6 d03f 6aca b0bf f13c c2bf
00000060: 6848 ca3e 082b 05be 990c 29be d078 7d3e
00000070: e0c7 c43e d118 a13e 1b77 343e 49e4 7abf
00000080: c25f 1dbf c6a9 3cbf 5267 4dbf fe15 3f3f
00000090: 68e6 29bf 49c7 1dbf e243 a73f 3a89 30bf
000000a0: 2ccb cb3f 4e84 cfbf fb5a 0c3f 72fc 21be
000000b0: edae ad3f 43c7 193e 333d 80bf 35db 813f
000000c0: e9a2 25be 0510 043d fa84 aebe 8fcc edbe
000000d0: 38de f9be 75d9 183f 8a89 c7bf a136 2cbf
000000e0: 2e52 1a3c 3c5c 4140 5a18 1140 fe01 eebf
000000f0: 5b49 2840 611a df3f 4077 afbf 205d d03f
00000100: 04c2 043f 7a00 64bc 147c 3cbd ed2c fa3f
00000110: 9511 b83f b775 e2be 3e62 3cc0 0011 933f
00000120: 5107 0b3f d811 363f f6d1 18bf 3b76 693f
00000130: 6ed3 b13e 22f7 343f 0373 f83e 205b c9bf
00000140: 21ca 9d3f 1a55 fd3e 3190 e13e c9fb 96bf
00000150: 5996 13bf bcd2 05c0 a451 463f 33f9 b43f
00000160: e6a5 683f acef 0340 4d1a cdbf eabb ecbf
00000170: 7d52 b93f 8ea4 7bbf 8224 8c3f ea10 7abf
00000180: b267 023c 8d2c 483f e020 40bf 5016 0440
00000190: 8a9a 71bf 7cec e63f dcd5 993d e05e c7bf
000001a0: 36fd 85c0 7ea7 243e dd36 08bf 24cf 033f
000001b0: 3e62 0440 e951 f33e 1e7c 4bbc 0bdd bcbf
000001c0: c6e0 df3f 8552 893f f735 a33f c74f 23bf
000001d0: 1af1 51bf fed9 c43f 18e6 273e 4ab9 903f
000001e0: be56 c03e b7ca 4e3f 57bf ccbf 267d ae3f
000001f0: f5db bebf eded 253f cbca 9dbf b487 fc3f
00000200: 9071 bc3f 6a9a 8f3f 773b bbbf aff5 fcbf
00000210: 4d94 fcbf 020d 15bc 72b2 41c0 e5fe 97bf
00000220: 59cc 2a3f b7f0 87c0 378c e7bf 4703 82bf
00000230: 2ed3 8d3e 158e be3f 17cb 2a3f 56c5 a93e
00000240: 59ba 1b3f dbb9 3340 0b84 f23f 77cf d8bf
00000250: 51cd b73f 5161 33c0 0e54 aabf a678 8bbe
00000260: f4aa 9abf c050 213f 7440 30bf 8edd dbbf
00000270: 199d bd3f 07c2 6e3f 2b34 133d de04 26bd
00000280: 6086 793e 97a4 72bf abee 15bd 7676 363f
00000290: db32 b23e 1d35 08c0 a775 f43f a482 fabe
000002a0: 07f9 38bf fd14 2f3f 1976 863f 9391 30bf
000002b0: 65b1 1cc0 57ec 523f 70ba adbf 2edd 4340
000002c0: 7c59 993f 59b1 c33f 74e2 e63f 050a 81be
000002d0: 67b9 5bbf 1335 a03f c159 833f 5b37 2040
000002e0: 94d4 e13f 1954 473d 8dca 54bf 346b b0bf
000002f0: 0a8d 84bf b926 9e3e 83fa da3d b709 dcbf
0.18494584 -1.848461 1.3322041 0.40004966 -0.6860169 -1.0319484 -1.0695021 1.2637523
-1.179076 -0.78621936 -0.54531 -1.281728 1.3280917 0.49466503 0.06572013 -1.1592375
-0.7276321 -1.5447477 -0.9240365 -0.13596714 1.4745209 1.6325289 -1.3811772 -1.5174848
0.39508367 -0.13004696 -0.16508712 0.24753118 0.38433743 0.31464246 0.1762356 -0.98004586
-0.6147424 -0.73696554 -0.8023578 0.7464293 -0.663672 -0.6163221 1.3067591 -0.6895939
1.5921378 -1.6212251 0.54826325 -0.15818956 1.3569008 0.15017419 -1.0018677 1.0145022
-0.16175427 0.03224184 -0.34085828 -0.46445128 -0.48802352 0.59706813 -1.5588849 -0.6727086
0.009419007 3.0212545 2.2671113 -1.8594358 2.6294773 1.7429925 -1.3708267 1.627842
0.51858544 -0.013916129 -0.046016768 1.954496 1.4380366 -0.44230434 -2.9434962 1.1489563
0.5430804 0.7112098 -0.59695375 0.9119603 0.3473162 0.70689595 0.48525247 -1.5730934
1.232731 0.4947899 0.44055322 -1.1795589 -0.5765129 -2.0909872 0.77468324 1.413855
0.9087814 2.0615034 -1.6023651 -1.8494847 1.4478298 -0.98297966 1.0948641 -0.9768206
0.007959293 0.7819298 -0.75050163 2.0638618 -0.9437643 1.8040919 0.075114936 -1.5575829
-4.1871595 0.16079518 -0.53208715 0.51487947 2.0684962 0.4752343 -0.012419729 -1.4754957
1.749047 1.0728308 1.2750844 -0.63793606 -0.82008517 1.5379026 0.16396368 1.1306546
0.3756618 0.8077807 -1.5995892 1.3631942 -1.4910876 0.6481617 -1.2327513 1.9728913
1.4722157 1.1218998 -1.4627522 -1.9762477 -1.9732758 -0.00909734 -3.0265164 -1.1874663
0.6671806 -4.248134 -1.8089665 -1.015725 0.2770018 1.488711 0.6671614 0.33158368
0.6083122 2.8082187 1.8946546 -1.6938313 1.4359533 -2.8028147 -1.3306901 -0.27240485
-1.2083421 0.6301384 -0.6884835 -1.7176988 1.4813567 0.9326481 0.035938423 -0.040531985
0.24367666 -0.94782394 -0.036604565 0.7127451 0.34804425 -2.1282418 1.9098405 -0.48927796
-0.72254986 0.683914 1.050479 -0.6897213 -2.4483273 0.82391876 -1.3572521 3.0603747
1.1980433 1.5288497 1.8037858 -0.25202957 -0.85829777 1.2516197 1.0261766 2.5033786
1.7642999 0.048664186 -0.8312157 -1.3782716 -1.0355542 0.30888918 0.106923126 -1.7190465

model.func.layer0_convnet.conv.linear_2.output_mask f4 [40]
00000000: 0000 803f 0000 803f 0000 803f 0000 803f
00000010: 0000 803f 0000 803f 0000 803f 0000 803f
00000020: 0000 803f 0000 803f 0000 803f 0000 803f
00000030: 0000 803f 0000 803f 0000 803f 0000 803f
00000040: 0000 803f 0000 803f 0000 803f 0000 803f
00000050: 0000 803f 0000 803f 0000 803f 0000 803f
00000060: 0000 803f 0000 803f 0000 803f 0000 803f
00000070: 0000 803f 0000 803f 0000 803f 0000 803f
00000080: 0000 803f 0000 803f 0000 803f 0000 803f
00000090: 0000 803f 0000 803f 0000 803f 0000 803f
1.0 1.0 1.0 1.0 1.0 1.0 1.0 1.0
1.0 1.0 1.0 1.0 1.0 1.0 1.0 1.0
1.0 1.0 1.0 1.0 1.0 1.0 1.0 1.0
1.0 1.0 1.0 1.0 1.0 1.0 1.0 1.0
1.0 1.0 1.0 1.0 1.0 1.0 1.0 1.0

model.func.layer0_convnet.conv.sc.weight f4 [384]
00000000: 0044 6bbf 4b6e d83f 66e5 2fbf 8c48 c93d
00000010: d6d3 8f3f 4e69 12c0 fd30 343f f324 303f
00000020: 92e0 71bf 423b a03e 707a 5b3f f63a e6bf
00000030: 4223 863f 09d1 86bf e4a3 3a3e 4be5 e93f
00000040: ee48 30bf 3671 393f 2cb1 f6bf ac86 983f
00000050: 5eb0 cdbf fa81 813e 32c3 d43e 2f45 83bf
00000060: 687c c13e 55d5 c3bf dbea 30bf 706d 3ebe
00000070: d63e e0be 3ae7 8cbf 2ab4 3f3f b4d3 9b3e
00000080: fdb4 e5bf 403c 29bf 7282 13bf 1d55 02be
00000090: ccc1 54bf 2e3d 6fbf c508 9e3f d47c 133f
000000a0: 535f 02bf 7805 a43e aba7 b83f 7541 bcbe
000000b0: 520c 563f 40f6 16c0 933d 973e 3bc9 7e3f
000000c0: ec79 133e de2c f33e 6fd0 313f b21e 5a3f
000000d0: 0ae0 d43f 113d 21bf 325b 3f3f 1bcf d53f
000000e0: 8415 e93e 97c8 bb3f e409 df3f 0de4 98bf
000000f0: c51d dcbd c23f e23e bda8 8c3f 010f 903f
00000100: 1b19 563e 79c0 443f 9374 2d3f ae0a 043f
00000110: ff22 88bf b101 ecbe 97e5 813f 93a6 e5be
00000120: 244c a93e c626 b83e b637 fbbf 4d40 22bf
00000130: 59f1 82bf 836a 8fbf 57ee 6cbf baa9 9abe
00000140: f8e4 5abf a05a 463f e970 61bf 9e76 dabc
00000150: ec7c e43f cc61 f3bf f6d7 67be 8900 c0bf
00000160: 8e9d 87be 2bc1 0b3f bca4 0540 6c97 cb3e
00000170: 3b24 6e3f bebb 0cc0 451b 12bf 4958 22bf
00000180: b8e7 afbe b71f e43e 904e b4bf c967 8fbf
00000190: b154 d73f 3b7b bc3e 3d86 1f3f e82a 24bf
000001a0: cf30 f5be 317c 4cbe 3ccf ee3f 42b3 02c0
000001b0: e02d dabe d93f 90be ad1c b0be 9d8e b53f
000001c0: 9bc8 103f cf82 1bbf c6f1 cdbf c8e0 e63f
000001d0: 6281 993e ddbf 2f3e aa14 3abf 58b2 d63e
000001e0: 2c19 0ebf 2fc3 8abe abf9 be3f f12f 59bf
000001f0: cfd1 75bf 8361 e6be 7811 2bbf 20cf 1c40
00000200: ee5c 97bf b041 d8be 65b1 ffbf d1c5 c1bf
00000210: cf22 54bf 5d8f 483d 4840 173f 1127 0bbe
00000220: e388 b23f 2cbb 2540 ef3c d5be 6b75 5bbe
00000230: eca8 26bf 28ad 3ac0 ff66 613f 8897 f5be
00000240: 61f7 673e 5f73 46bf 1797 c8be 3e36 9c3e
00000250: 5612 bdbe aada 723f 7ab7 dcbd a54b 3bbe
00000260: fae1 8d3f b34c b33f f1fe a8be af3d 9e3f
00000270: 8ba8 71bf d196 02bf 3f0a 763f dead 09c0
00000280: effb 80bf fc01 d93f 3697 743f 3939 20c0
00000290: 82af 053f 338c f7bf fb16 cf3f 8488 393f
000002a0: 4d98 68bf 8935 d53e d12a 823f ec10 233e
000002b0: 80f2 9fbf be5c 4a3e 658f 0e40 a57b a03e
000002c0: 420f e13d 24bd 1f3f e4a0 963f 6dfe 9d3f
000002d0: 9701 9cbd cbd8 743e 6a1f a23e aef2 4d3f
000002e0: 12cf 3b3f de6e 2fc0 8c08 673e 54ea 163f
000002f0: ceac a9bc 3887 2740 bb83 b93e 1cd4 15be
00000300: 12d9 c63f 3530 2b3f 63ef ae3d 4902 2ebf
00000310: 7aa2 dfbd fb94 b13f 85d4 fabe a2c2 383f
00000320: 9853 b13f 1a16 e8bf 206c 3c40 ad5b 28c0
00000330: 3cd3 013e b752 3f40 49f3 8abf a609 1140
00000340: 3ae7 5d3f 7712 97bf 9289 2abf 30ba 9b3f
00000350: a9da 95be cadf b1be 2b73 25c0 789c 993d
00000360: 8d54 1d40 97c1 99bf 0044 9b3f aee2 16bd
00000370: 60d0 f03f 2db7 7f40 0672 abbf d92d ebbe
00000380: dd18 9cbf f4a8 193f 90c6 19be 7d78 6abf
00000390: 53d5 51be 39a8 143f b3e1 f2be 264d 2740
000003a0: fd45 f73e 6790 3ec0 2f73 e4be 1b04 68be
000003b0: d98f c0be ba8d f93f e44f 203f a8e0 7e3f
000003c0: 1e47 62bf 73d2 1040 2c1f 67bf 2606 eebe
000003d0: 35dd 5640 b9e2 06c0 67a5 0140 0b5f 5a3e
000003e0: 2d5b b93e eb0b bfbd 5c0a e9bc fa74 d7bf
000003f0: c3aa 3040 9b54 223e 06bc 00bf 8089 2040
-0.91900635 1.6908659 -0.6870941 0.0982829 1.1236522 -2.2876773 0.7038725 0.6880638
-0.9448329 0.3129521 0.857337 -1.7986743 1.047951 -1.0532542 0.18226582 1.82731
-0.6886128 0.7243837 -1.9272819 1.1916099 -1.6069448 0.25294477 0.41555172 -1.0255488
0.37790227 -1.5299479 -0.6910836 -0.18596435 -0.4379794 -1.1008065 0.74884284 0.30434954
-1.7945858 -0.6610756 -0.5762092 -0.1272778 -0.8310821 -0.9345273 1.2346426 0.5761235
-0.50926703 0.32035422 1.4426168 -0.3676869 0.8361255 -2.35878 0.29539165 0.99525803
0.14401978 0.47495168 0.6945867 0.8520309 1.6630871 -0.62983805 0.7474853 1.6703829
0.45524228 1.467059 1.7424893 -1.1944596 -0.107478656 0.44189268 1.0988995 1.1254579
0.20908014 0.7685619 0.67756003 0.51578796 -1.063568 -0.4609504 1.014819 -0.4485365
0.33065903 0.35967082 -1.9626377 -0.63379365 -1.0229903 -1.120438 -0.9255118 -0.30207616
-0.8550563 0.7748203 -0.8806291 -0.02666789 1.7850623 -1.901422 -0.22640976 -1.5000163
-0.26487392 0.54591626 2.0881796 0.39763963 0.93024033 -2.1989589 -0.5707286 -0.6341596
-0.34356475 0.44555447 -1.4086475 -1.1203548 1.6822721 0.36812767 0.62314206 -0.6412797
-0.478888 -0.1996925 1.8656993 -2.042191 -0.42613125 -0.28173712 -0.34396878 1.4184147
0.565561 -0.60746473 -1.6089408 1.8037348 0.29981524 0.17163034 -0.7268778 0.4193294
-0.5550716 -0.27102038 1.4919943 -0.8483878 -0.9602327 -0.4499627 -0.6682353 2.450142
-1.1825235 -0.42237616 -1.9976012 -1.5138494 -0.82865614 0.048964847 0.5908246 -0.13589121
1.3948025 2.589549 -0.4164805 -0.2143151 -0.65101504 -2.9168186 0.88047785 -0.47967172
0.22652961 -0.7751979 -0.39177772 0.30510134 -0.36928052 0.94864905 -0.10777183 -0.18290575
1.1084588 1.4007782 -0.33007005 1.2362574 -0.943978 -0.5101138 0.96109384 -2.151237
-1.0076884 1.695373 0.9554323 -2.5034926 0.5222093 -1.933966 1.6178888 0.7247393
-0.9085739 0.41642407 1.0169317 0.15924424 -1.249588 0.19761941 2.227502 0.31344333
0.10989238 0.6239798 1.176785 1.234327 -0.07617491 0.23910825 0.31664592 0.80448425
0.7336284 -2.7411418 0.22561854 0.58951306 -0.020712283 2.617628 0.36233315 -0.14631695
1.5534995 0.66870433 0.08541753 -0.67972237 -0.10919662 1.387359 -0.48990265 0.72171986
1.3853636 -1.8131745 2.9440994 -2.6305954 0.12678236 2.9894235 -1.0855495 2.266214
0.8668095 -1.180251 -0.66616166 1.2166195 -0.29268387 -0.3474105 -2.5851543 0.07500547
2.4582856 -1.2012204 1.2130127 -0.036837272 1.8813591 3.9955552 -1.3394172 -0.45933416
-1.2195088 0.60023427 -0.15017152 -0.915901 -0.20491533 0.5806919 -0.4743782 2.6140838
0.48295584 -2.9775636 -0.44619128 -0.22657816 -0.37609747 1.9496377 0.62621903 0.9956155
-0.88389766 2.2628448 -0.9028194 -0.46489066 3.3572514 -2.107588 2.0257204 0.21325319
0.36202374 -0.09328445 -0.028447323 -1.6832573 2.7604225 0.15852587 -0.502869 2.5083923

model.func.layer0_convnet.conv.sc.output_mask f4 [40]
00000000: 0000 803f 0000 803f 0000 803f 0000 803f
00000010: 0000 803f 0000 803f 0000 803f 0000 803f
00000020: 0000 803f 0000 803f 0000 803f 0000 803f
00000030: 0000 803f 0000 803f 0000 803f 0000 803f
00000040: 0000 0000 0000 0000 0000 0000 0000 0000
00000050: 0000 0000 0000 0000 0000 0000 0000 0000
00000060: 0000 0000 0000 0000 0000 0000 0000 0000
00000070: 0000 0000 0000 0000 0000 0000 0000 0000
00000080: 0000 0000 0000 0000 0000 0000 0000 0000
00000090: 0000 0000 0000 0000 0000 0000 0000 0000
1.0 1.0 1.0 1.0 1.0 1.0 1.0 1.0
1.0 1.0 1.0 1.0 1.0 1.0 1.0 1.0
0.0 0.0 0.0 0.0 0.0 0.0 0.0 0.0
0.0 0.0 0.0 0.0 0.0 0.0 0.0 0.0
0.0 0.0 0.0 0.0 0.0 0.0 0.0 0.0

model.func.layer1_convnet.equivariant_nonlin.mul.output_mask f4 [24]
00000000: 0000 803f 0000 803f 0000 803f 0000 803f
00000010: 0000 803f 0000 803f 0000 803f 0000 803f
00000020: 0000 803f 0000 803f 0000 803f 0000 803f
00000030: 0000 803f 0000 803f 0000 803f 0000 803f
00000040: 0000 803f 0000 803f 0000 803f 0000 803f
00000050: 0000 803f 0000 803f 0000 803f 0000 803f
1.0 1.0 1.0 1.0 1.0 1.0 1.0 1.0
1.0 1.0 1.0 1.0 1.0 1.0 1.0 1.0
1.0 1.0 1.0 1.0 1.0 1.0 1.0 1.0

model.func.layer1_convnet.conv.linear_1.weight f4 [128]
00000000: 305e a6bf c34e 933f f8d2 013f 6475 1a3f
00000010: 0fbc fcbf 5f42 9d3f 9a1c 1ebf d604 16be
00000020: 903a 5bbe 9df8 2d3f be81 aabf 4105 1bc0
00000030: 90ca 0f3f 04ee 49be cac8 7c3f da46 d93e
00000040: bfc1 12bf f613 98bf 2949 a13e c91e 44bf
00000050: 6bd4 e3bf 8b22 2740 3e49 c4be 5793 0c40
00000060: 1997 f93f 3ea1 4e3f 2de9 81bf 3fda 403f
00000070: 2c29 d5bf 6edc babf 4148 a83f 10f3 26c0
00000080: 1773 8240 5aaa 0140 17c6 833d 451a b5bf
00000090: 7695 9abf 10e0 223f 4584 0040 0c85 063f
000000a0: 5154 a13f adf1 2dbf d2be 92bf ae1b a83f
000000b0: e31f 5e3e e9bd 84bf a6b1 513f 37fb eabf
000000c0: f9de 30bb 2fd1 503e 7efa 993d 9aaa 113f
000000d0: 81ad e03e 248f 363e e1bf 7cbf 46a1 2fbf
000000e0: f3c9 0b3e 44c4 543f 8fd3 eebf e0e0 b2be
000000f0: aff4 2a3c a17d 3fbf 2f88 4fbe ca78 803e
00000100: cac6 10be 5e7f 91bf dbc0 46c0 58bc 8a3f
00000110: 3505 9d40 1e03 71bf dfcd 18bf e82f acbf
00000120: 307f e03e f7e3 8dbd b142 6340 0249 933f
00000130: 9f0e a4be b2a4 843f 34c7 6d3f 0864 07c0
00000140: f751 9c3f 3af8 7bbf 1a57 f03f 2af6 2440
00000150: ef2d 09bf bfaf 30bf 48d6 fd3f c90d 803d
00000160: 89c3 19c0 10d6 6bbe 54d6 5b3f 2c73 0740
00000170: 0015 c7bf 6d21 dfbe a8e5 1c40 2a05 9bbf
00000180: b5d4 0d40 e55d 21c0 e170 f5be d37d b7bd
00000190: 905b 47c0 baf7 41bf f7f9 4abf 3afd 2fc0
000001a0: 70f9 c1bf 8847 f7bf eb73 e63e 78f3 bf3f
000001b0: 2922 16bf df5c 73bf c580 8d3f 6359 5e3f
000001c0: 381e 883f dc08 303e 2bde 26bf f8eb 89bf
000001d0: 2ae1 21bf d310 23c0 cbae b0bf 0dfc 15c0
000001e0: 13dc 27bd 2ecf dbbe 606f de3e 7d0c d9bf
000001f0: 6ec3 e73f 327d 3b3f c164 103f ae8e d2be
-1.2997494 1.1508411 0.5071254 0.60335374 -1.9744891 1.228588 -0.6176239 -0.14650282
-0.21409059 0.6795748 -1.3320844 -2.4221957 0.5616846 -0.19719702 0.9874388 0.42436868
-0.57326883 -1.1881092 0.3150113 -0.76609474 -1.77992 2.6114833 -0.3833713 2.196493
1.9499236 0.80714786 -1.0149285 0.7533302 -1.665319 -1.459852 1.314705 -2.6085854
4.076549 2.0260224 0.06434267 -1.4148642 -1.2076862 0.6362314 2.008073 0.52546763
1.2603856 -0.6794689 -1.1464484 1.3133447 0.21691851 -1.0370456 0.81911695 -1.8357915
-0.002698837 0.20392297 0.07518481 0.5690094 0.43882373 0.17828041 -0.98730284 -0.6860546
0.13651256 0.8311198 -1.8658313 -0.3493719 0.010434314 -0.7480107 -0.20266794 0.25092155
-0.14138332 -1.1366994 -3.105521 1.0838728 4.9068856 -0.9414538 -0.59689134 -1.345212
0.43847036 -0.069282465 3.5509455 1.1506655 -0.32042405 1.0362761 0.92882085 -2.1154804
1.2212514 -0.9842564 1.8776581 2.5775247 -0.53585714 -0.6901817 1.9831018 0.06252629
-2.4025595 -0.23030877 0.85873914 2.1164045 -1.5553284 -0.4358019 2.451517 -1.2110951
2.2161076 -2.5213559 -0.47937682 -0.08959546 -3.1149635 -0.75768626 -0.79287666 -2.7498307
-1.5154247 -1.9318705 0.45010313 1.4996176 -0.58645874 -0.95063585 1.1054922 0.86855143
1.0634222 0.1719088 -0.6518275 -1.0775137 -0.632342 -2.5479019 -1.3803343 -2.343509
-0.040981364 -0.42931503 0.43444347 -1.6956936 1.8106515 0.7323791 0.5640374 -0.4112448

model.func.layer1_convnet.conv.linear_1.output_mask f4 [32]
00000000: 0000 803f 0000 803f 0000 803f 0000 803f
00000010: 0000 803f 0000 803f 0000 803f 0000 803f
00000020: 0000 803f 0000 803f 0000 803f 0000 803f
00000030: 0000 803f 0000 803f 0000 803f 0000 803f
00000040: 0000 803f 0000 803f 0000 803f 0000 803f
00000050: 0000 803f 0000 803f 0000 803f 0000 803f
00000060: 0000 803f 0000 803f 0000 803f 0000 803f
00000070: 0000 803f 0000 803f 0000 803f 0000 803f
1.0 1.0 1.0 1.0 1.0 1.0 1.0 1.0
1.0 1.0 1.0 1.0 1.0 1.0 1.0 1.0
1.0 1.0 1.0 1.0 1.0 1.0 1.0 1.0
1.0 1.0 1.0 1.0 1.0 1.0 1.0 1.0

model.func.layer1_convnet.conv.fc.layer0.weight f4 [8, 64]
00000000: 4236 bc3e f1df 063f 53a4 dfbf ff20 2140
00000010: bd9a 1bbf 9991 4cbf 4ab8 1abf 7e86 80bf
00000020: cbbf e73f 1f40 c33e fe02 2ac0 ffcd 30c0
00000030: 14e4 e23e d03e 92bf 4908 9f3f 2742 8cbf
00000040: d365 0cbc eb11 88be c548 7dc0 f548 9cbf
00000050: c535 f13f 6ace 7d3e e555 7e3d 74f2 ed3e
00000060: 9978 e63f 4a60 f9bf 0cf4 4a3f 0f8f 403f
00000070: 002c 33c0 074f 263f 2df4 20bf a4f1 ff3f
00000080: 7b77 173f e8fd efbf ce24 3d3f db87 2a3f
00000090: f5b3 ab3f 9799 3ec0 06e3 ca3f 896e 3f40
000000a0: 52dc 6c3f 8a9d e53f 7e6c abbf 890d 42c0
000000b0: 55f9 bbbf edca a9bc 9bd6 bdbf de26 37bf
000000c0: 1b92 62c0 f8f3 2440 4d4e a33f 682d 65bf
000000d0: ec72 49bf b719 32bf b911 dfbe f580 c53f
000000e0: 8c20 2340 ae98 3340 12d4 c5bf da21 c7be
000000f0: 5ea5 983e ccfb 693e f3be 8dbf ea0f 5c3f
00000100: aa79 d63f 557e ddbf 71dc 6f3f f33d 8abf
00000110: 60f9 0cbe 51e8 22be 69c7 143f f247 773f
00000120: e0f9 623f 6366 46be 408a 403f c2e9 df3e
00000130: f88a 773f 3ff1 cf3f 66bb c03f a898 bf3f
00000140: bdb5 cb3e b03e 1040 82d6 1540 2a86 babe
00000150: d945 ca3f 4e21 623f e1f0 5a3f 59da 53c0
00000160: 214e 82c0 da36 77bf 21bf 0940 4e37 acbf
00000170: 9b7e 10be 256a f1bf 9265 92be 69c8 3bbf
00000180: bcb5 82bf 69b8 0dbf 8ca2 54c0 b9c6 17c0
00000190: 908b 7c3f 101e 27bf 4e91 8b3f d38d ea3f
000001a0: c1fe 19c0 8355 4a3f 5c9a 71c0 847e e83f
000001b0: 61a0 403f 3890 90bf 4a15 5ebf e786 763f
000001c0: 5e87 5ebe ff28 eb3f 879b 893d d541 5bbf
000001d0: 60e9 b73e e5bc 5c3f b06a bbbe 2f3f 853f
000001e0: 6b1a b63f 5e45 62bf f062 583f 7e6d 3040
000001f0: 7a19 98c0 e1cb 91bf 700d 69bf 854e bb3f
00000200: 6db9 e0be 3357 72bf 1d4f b8bf 0c34 ef3f
00000210: e1da 9a3f 2457 583f 4761 983e 903f 843d
00000220: 0810 5a3f 62e4 aabf 69d8 a1bf 2492 eebe
00000230: fc28 0840 496d 12c0 e441 b23d d362 d83e
00000240: 04e7 c93e 58d2 063f 7c76 b6bf 55b4 033e
00000250: 2596 c0be 85fc 2ec0 120e a6bf 4df9 323f
00000260: 1ca8 c53f 8e61 6a3f b94a 8fbf 8960 a63d
00000270: cfb9 1f3f 63b9 c53e d1d4 94be b6e9 f5bf
00000280: 5d14 ba3f dfe0 5d3f a4bb b93f 24f5 6140
00000290: 4f7d eebe 8a3c 2140 59c6 e63c c35b cbbe
000002a0: 266b 2cbf 0846 87bf 3b99 1840 4b2e c8be
000002b0: 68e5 933d 60c6 58be 4262 7f3d 1199 ae3f
000002c0: 96fc 153d 6280 69bf 1903 d03e 264c 7ebd
000002d0: 15ad 593f 266f b5bf e29b 02c0 cc6f e3be
000002e0: 5596 90bf a15a 4bbf ad53 5e3f 83d3 9b3e
000002f0: af71 be3f 9004 3e40 b407 5f3f ea90 d9bf
00000300: 48bb b3bf 125b 1fbf 9e23 a33e 8ef6 3ebf
00000310: b6a2 c73d 6a28 623f 4129 06c0 1847 253f
00000320: 2473 97be 3359 85bf 0415 563f 9bcb cb3e
00000330: a169 c5bf 015f ddbe a542 46bf 28f7 85bd
00000340: f1ed 863f cb04 3bbd b341 a33e b2a0 133e
00000350: dcb1 3fbd 0ad1 93bf 4a6c 883f ee2a 0f3f
00000360: ad08 cbbf 40ce 8ebf 48b3 94bf 2b96 6dbf
00000370: fe91 72bf 1207 06c0 672b 0fc0 5b58 efbe
00000380: c639 89bd 4361 67bf 7be6 8a3d 4f1d 073e
00000390: 12c0 06c0 eca7 713f 62c4 2e3f 3445 b4be
000003a0: 19d0 0440 0878 0bc0 9d2e 2d3f 3895 0abf
000003b0: aa93 2b40 00ff c5bf 12e2 f53f 22cb f53f
000003c0: 3c4f 29be 54f4 95be cde4 a7be 2204 c13d
000003d0: 1a89 c1bf 6f99 9abf 40ce c03e ee8b 133d
000003e0: 8cf2 96bf a428 ec3f bd25 4e3f 62f3 01c0
000003f0: 2f12 4dbf e9bb 5a3f afb7 c3bf 0387 1ebe
0.36760145 0.5268546 -1.7472023 2.517639 -0.60782987 -0.79909664 -0.6043745 -1.0041044
1.8105406 0.38134858 -2.6564326 -2.762573 0.44314635 -1.1425419 1.2424403 -1.0957688
-0.008569199 -0.2657617 -3.9575665 -1.2209765 1.8844534 0.24785772 0.062093634 0.4647404
1.8005553 -1.948251 0.79278636 0.7521829 -2.7995605 0.64964336 -0.6287258 1.9995618
0.5916669 -1.8749361 0.73884284 0.6661355 1.3414294 -2.9781244 1.5850532 2.9911215
0.9252368 1.7938702 -1.3392484 -3.0320761 -1.4685465 -0.020726645 -1.4831117 -0.7154368
-3.5401676 2.5773907 1.275827 -0.8952241 -0.7869098 -0.6957049 -0.4356821 1.542998
2.5488615 2.8061938 -1.5455344 -0.38893014 0.29813665 0.22849959 -1.1073898 0.8596178
1.6755879 -1.7304178 0.9369574 -1.0800155 -0.13767004 -0.15908934 0.58116776 0.96594155
0.8866253 -0.19374995 0.7521095 0.4373303 0.96696424 1.6245497 1.505719 1.4968462
0.39787093 2.2538261 2.3412175 -0.36430484 1.5802566 0.8833207 0.855238 -3.310202
-4.072037 -0.9656807 2.1522906 -1.3454378 -0.14110796 -1.8860518 -0.28593117 -0.73352677
-1.0211711 -0.5535951 -3.322421 -2.371504 0.98650455 -0.65280247 1.0903718 1.8324531
-2.406174 0.7903673 -3.7750463 1.816361 0.7524472 -1.1294012 -0.86751235 0.96299595
-0.21731326 1.8371886 0.067191176 -0.85647327 0.35920238 0.8622573 -0.36604834 1.0409907
1.4226812 -0.88387096 0.84525967 2.7566829 -4.75311 -1.1390344 -0.9103613 1.4633337
-0.4389147 -0.94664305 -1.4399143 1.8687758 1.2098047 0.84507966 0.29761717 0.06457436
0.8518071 -1.3350947 -1.2644168 -0.4659587 2.1275015 -2.2879202 0.08703974 0.42262897
0.39434063 0.5266471 -1.4254909 0.1286176 -0.3761455 -2.7341626 -1.2973044 0.6991165
1.5441928 0.91555107 -1.1194679 0.08123881 0.62392896 0.38618 -0.29068616 -1.9211948
1.4537464 0.8667125 1.4510388 3.5305872 -0.46579978 2.51932 0.028170751 -0.39718446
-0.67350996 -1.0568247 2.3843524 -0.3909782 0.0722149 -0.21169424 0.062349565 1.3640462
0.036617838 -0.9121152 0.40627363 -0.06208434 0.8502973 -1.4174545 -2.0407643 -0.44421232
-1.1295878 -0.79435164 0.8684643 0.30434808 1.4878443 2.9690285 0.8712113 -1.6997349
-1.4041529 -0.6224834 0.3186311 -0.7459496 0.097478315 0.88342917 -2.096268 0.64561605
-0.29580033 -1.0417846 0.8362582 0.39803776 -1.542286 -0.43236545 -0.7744544 -0.06541282
1.0541364 -0.045658868 0.31886062 0.14416769 -0.04680048 -1.1548169 1.0658047 0.5592488
-1.5862023 -1.1156693 -1.1617212 -0.92807263 -0.94754016 -2.0941815 -2.237024 -0.46747097
-0.067004725 -0.90382785 0.06782242 0.13194774 -2.105473 0.94396853 0.68268406 -0.35209048
2.0752013 -2.1792011 0.6764925 -0.5413394 2.6808877 -1.5468445 1.9209616 1.9202616
-0.16534132 -0.2928797 -0.3279175 0.094246164 -1.5119965 -1.2078074 0.37657356 0.03602212
-1.179277 1.8449903 0.80526334 -2.03048 -0.8010587 0.8544298 -1.5290431 -0.1548119

model.func.layer1_convnet.conv.fc.layer1.weight f4 [64, 64]
00000000: c026 db3e 6fb8 0fbd 1450 c1be 3e25 1a3f
00000010: 18d7 b2bd be54 65bd 327f 79be e07f b93f
00000020: 44d5 37be 55be 73bf 28d1 043f 4d8e 68be
00000030: ce98 553f 6b05 1b3f c4b8 f53f cdf4 f13e
00000040: a5ff 16bf b7d3 523e 4273 433f 9417 2bbf
00000050: 061f 13bf c18f aa3e bc07 09bf 95c3 f8bf
00000060: 8afb 733f fb71 673f d2e2 32be aa99 a83f
00000070: 7905 c43e bca6 d43f 9b36 02bb c2fa 803f
00000080: cd16 86bf 2437 3f40 aaf3 39bf ec59 d33f
00000090: 3e72 a53f 40b9 893d 31b0 823f c530 f43f
000000a0: f0b1 c73d ae1c 57bf 7396 aebe 8fd6 b53f
000000b0: 2c12 bf3e ae4a b6bf 337d 883f f738 2340
000000c0: c872 df3e 2426 d6bf 8c7e 85be fa3a 61bf
000000d0: c7b3 1e40 7c48 4d3f 2b43 f03e d5aa 6fbd
000000e0: e57c 80bf e9bc 02bf 9cd9 aa3f f396 6abe
000000f0: c7e8 42bf 2eb5 7c3f 1b38 12bf e519 d13d
00000100: 428f d53f bdc6 39bf 4d44 64bf 5b2a 3abf
00000110: e421 053f 0bac 113d 0354 893f d8c7 dc3f
00000120: 2171 91bf da44 513d 7bab c63e 6ae1 fcbf
00000130: f3f3 21bf 8b7c b6bf 8ec2 663e 7c32 f5be
00000140: cf2b 24be 05a6 ed3f 862a 33bf 883d febe
00000150: 2036 1c40 2a7d 253f 0125 353f 9c87 5a3f
00000160: f436 8abe b6c5 14bf 241c abbf a89e 57bf
00000170: 672e 0a3f 7d00 783f 2f2a 3cbf 92ce d23f
00000180: c3af ddbe 5817 a13e d11c 4f3e ccc2 4b3e
00000190: 3b9f 393f e546 e03e a672 b3be 5ee6 343f
000001a0: d858 3abd fb4a 82bf ac97 6ebb 2118 a0bf
000001b0: 854a f1bc 9550 c0bf b05a e03e 6916 9c3d
000001c0: 4926 11bd 97ab f03f e0f0 08bf 6da8 d43f
000001d0: c03f 33bf 12d0 0d3f 84c7 d7bf e29f 813e
000001e0: fed3 22be 2ec0 32c0 a321 883e b810 973f
000001f0: b2f9 84bf 8769 98bf 3ce3 163f c50a 073f
00000200: 8968 523f f42a ad3f e89b 7e3f ac1f 813f
00000210: 61ea 863f 07c6 6cbf 3ac6 2abe 74d6 b43e
00000220: 8d52 573f 1798 e73f f6fb b8bf b78f 3dbd
00000230: f75c e63c a414 6f3f 2e13 9a3f 559a 20c0
00000240: 9b6c 7ebe 18af 8abe 5441 923e adc5 81bf
00000250: df99 1bbf e2a9 793f bdd0 183f 722e a6bf
00000260: 65c8 383f da74 fdba a814 a1be 4c98 e1be
00000270: bac1 b3bc fa34 35bf a764 d63f 642b bdbf
00000280: c7eb 2d3f e8a6 a23f 2eb9 01bf 4eaa f9be
00000290: 7807 163f 9f46 a63f 2610 3d3f 2ac5 5e3f
000002a0: add9 913f 2211 df3e 8dc3 a2be 4426 98bf
000002b0: b1a1 b13f 0e0e 7dbe f966 c83f a91c b23f
000002c0: da22 3cbf dead 83bf 9d5b 72bc 8364 52bd
000002d0: 25e0 57bf 7442 05c0 4916 84bf f2fb 4bbf
000002e0: 78b8 a2bf 72fe 1dbf 985d b3be 65c9 0d40
000002f0: 0b8d dd3e 9afb a3bf 5dcc 18be 93d8 283e
00000300: 6147 66be b682 383f 13d2 40bf faae 9fbf
00000310: e876 68be 9431 fd3e 2ec8 f43f b9d1 e9be
00000320: 2063 3ec0 9941 27bf 192c 3c3e 4bc3 7c3f
00000330: f9b8 e13e e803 fe3f 7ce3 593f 6602 a23f
00000340: 8eaa 9d3e c583 b7be 9165 c7bf 0cf9 903e
00000350: 1a20 6abf b862 e73f 52c8 5d3e dd32 ba3f
00000360: 8356 af3f 57a4 9abe 308f a13d 7ba6 873f
00000370: b486 a93e 9c8e 953f e57b 10bf 3412 193f
00000380: e7a0 8bbf 085e d73e 7f31 af3f 5711 1cbf
00000390: 3803 3abf 4cd2 1cbf e348 bcbe f53e d8bf
000003a0: 3276 273f 407d a53e 7a35 6bbf 33c2 9f3f
000003b0: 3596 a43d bafb 9abf b2a7 0b3f 825d 09bf
000003c0: 7252 03bf f5e9 0540 acf8 693e 5cc6 c63c
000003d0: 9bbe 82bd 91c9 39be b50f 863f 9e94 f83f
000003e0: d578 943e 977a e4bf 9471 30bf 3bdc 633f
000003f0: e061 e6bf 98c6 1740 616a 25bf 6667 c93f
0.42803 -0.035088 -0.37756407 0.6021308 -0.08732432 -0.05598902 -0.24364927 1.4492149
-0.17952448 -0.952123 0.5188165 -0.22710533 0.83436286 0.6055514 1.9197011 0.4725708
-0.5898383 0.20588575 0.76347744 -0.6683285 -0.57469213 0.333128 -0.53527427 -1.9434687
0.95305693 0.90408295 -0.17469338 1.3171895 0.38285425 1.6613383 -0.0019868973 1.0076525
-1.0475708 2.9877405 -0.72637427 1.6511817 1.2925489 0.06724787 1.0210019 1.9077383
0.09750736 -0.84028137 -0.3409916 1.4206103 0.37318552 -1.424154 1.0663208 2.5503519
0.4364226 -1.673039 -0.2607311 -0.87980616 2.4797227 0.8018873 0.46926245 -0.058512527
-1.0038115 -0.51069504 1.3347659 -0.22909145 -0.7613644 0.9871396 -0.5711686 0.10210017
1.6684344 -0.72568876 -0.8916672 -0.7272088 0.5200484 0.035564464 1.0728763 1.7248487
-1.1362649 0.051091053 0.38802704 -1.9756291 -0.6326286 -1.4256757 0.22535154 -0.4789008
-0.16032337 1.856629 -0.6998676 -0.4965632 2.4408035 0.6464411 0.7075959 0.85363173
-0.2699505 -0.5811418 -1.3367963 -0.84226465 0.53977054 0.96875745 -0.7350187 1.646929
-0.43298158 0.31463122 0.20225836 0.19898528 0.7250859 0.43804088 -0.35048407 0.7066401
-0.045494884 -1.0179132 -0.0036406321 -1.2507364 -0.029454479 -1.5024592 0.4381919 0.07621462
-0.035436902 1.8802365 -0.53492546 1.66139 -0.7001915 0.55395615 -1.6857762 0.25317293
-0.15901181 -2.7929797 0.26588163 1.1801977 -1.0388701 -1.1907204 0.5894048 0.5275081
0.8219076 1.3528733 0.99456644 1.008779 1.0540277 -0.92489666 -0.1667718 0.35319865
0.8411034 1.8093289 -1.4451892 -0.046279635 0.028120501 0.9339087 1.2037103 -2.5094197
-0.24846117 -0.2708671 0.28565466 -1.0138451 -0.60781664 0.97524846 0.5969351 -1.2982924
0.7218078 -0.0019337193 -0.31461072 -0.44061506 -0.021942962 -0.7078396 1.6749467 -1.4778867
0.6793789 1.2707186 -0.50673187 -0.48762745 0.58605146 1.2990302 0.73852766 0.870196
1.1394554 0.4356776 -0.31789818 -1.1886678 1.3877469 -0.24712393 1.5656425 1.3914996
-0.7349068 -1.0287435 -0.01479235 -0.051365387 -0.8432639 -2.082181 -1.0319301 -0.79681313
-1.2712545 -0.6171638 -0.35032344 2.2154171 0.4327167 -1.2811158 -0.14921708 0.16488867
-0.22488166 0.7207445 -0.7532055 -1.2475274 -0.22701609 0.49451888 1.912359 -0.45667818
-2.9748 -0.6533447 0.18376197 0.98735493 0.44086435 1.9844942 0.8511274 1.2656982
0.30794185 -0.3584272 -1.5577871 0.28315008 -0.91455233 1.8077002 0.21658447 1.4546772
1.3698276 -0.30203506 0.07888639 1.0597681 0.33110583 1.1684146 -0.5643905 0.597934
-1.0908478 0.42063928 1.368698 -0.6096396 -0.7266116 -0.6125839 -0.36774358 -1.6894213
0.65414727 0.3232212 -0.91878474 1.248114 0.08036462 -1.2108071 0.5455276 -0.53658307
-0.51297677 2.0924046 0.22848767 0.024264507 -0.06384011 -0.18143298 1.0473543 1.9420354
0.28998438 -1.7849911 -0.68923306 0.8900792 -1.7998619 2.3714962 -0.64615446 1.573468
